spiky_spiral_autoencoder_fullinfo.pt (torch, 687801 bytes, 8 tensors)

encoder.0.weight f4 [128, 600]
0	0xbd1baf7a	-0.038009144
1	0x3d21bf5d	0.03948914
2	0xbcde1b29	-0.02711256
3	0xbd03f37b	-0.032214623
4	0x3c4a2f16	0.012340328
5	0xbcb1e9ea	-0.021717984
6	0xbd0a2ae5	-0.033732314
7	0xbcc6c93c	-0.024265878
8	0x3d1e9275	0.03871389
9	0x3cefb729	0.029262142
10	0x3c6a393f	0.014295875
11	0x3d0a91ed	0.033830572
12	0xbcb3c011	-0.02194217
13	0x3d0ff874	0.035149053
14	0x3d13d340	0.036090136
15	0xbccda7b4	-0.025104381
16	0x3d0f9fcb	0.0350645
17	0xbca49c03	-0.020093923
18	0xbb8acbe4	-0.0042357314
19	0x3cb91a2d	0.02259549
20	0xbd270ba6	-0.040782593
21	0xbb211ecc	-0.0024585007
22	0x3c8c1fe9	0.01710506
23	0xbca52bf6	-0.020162564
24	0xbcb34faa	-0.021888573
25	0xbc289b76	-0.010290971
26	0x3cb128f5	0.021625975
27	0xbc68a83e	-0.014200268
28	0x3cb07b4c	0.021543168
29	0xbd2322f7	-0.039828267
30	0xbc6235c7	-0.013806767
31	0x3b9abb7a	0.004722056
32	0xbcc7ecfd	-0.024404997
33	0x3c2a79e8	0.010405041
34	0x3c4ee1a5	0.01262704
35	0x3c36d838	0.011159949
36	0xbd02e5cb	-0.03195743
37	0xbcf204d6	-0.029543322
38	0xbc32a5cb	-0.010903786
39	0x3cfcbfd1	0.030853184
40	0xbcdbbd76	-0.02682374
41	0xbc09f122	-0.008419307
42	0xbbe06f27	-0.006849188
43	0xbcbc35b8	-0.022974834
44	0x3c9317e0	0.01795572
45	0xbba8d0f6	-0.005151863
46	0x3b09aeda	0.002100876
47	0xbceaef87	-0.028678669
48	0xbd045b87	-0.03231385
49	0xbc96952f	-0.018381683
50	0xbc02b4a0	-0.007977635
51	0x3b53cb4b	0.0032317217
52	0xb9ca8059	-0.0003862407
53	0x3cd257ec	0.02567669
54	0xbc14199d	-0.00903931
55	0xb97c7c7c	-0.00024078967
56	0x3d11ed08	0.03562644
57	0x3cbbca6c	0.02292367
58	0x3ce7cc6c	0.028295718
59	0x3d0633a5	0.032764096
60	0xbc548fa9	-0.012973704
61	0xbc91173a	-0.01771127
62	0x3c07b40e	0.0082826745
63	0x3cecbe6e	0.028899398
64	0xbbb95731	-0.005656146
65	0x3c19e498	0.00939288
66	0x3cc68c7a	0.024236906
67	0x3c191c9d	0.009345201
68	0xbc81f683	-0.015864616
69	0x3c143611	0.009046094
70	0x3d239bbc	0.03994344
71	0xbc70f20e	-0.014706148
72	0x3c8d5072	0.017250273
73	0x3c256de7	0.010097004
74	0x3d0bcba9	0.034129772
75	0x3b59f4ee	0.0033257562
76	0xbb80f949	-0.003935967
77	0xba752e61	-0.00093529193
78	0x3af8f641	0.0018994288
79	0xbcfef56c	-0.031122886
80	0xbd1d977e	-0.038474552
81	0x3d1c5b82	0.038173206
82	0x3aa802c1	0.0012818204
83	0xbc9b3c32	-0.018949602
84	0xbcc96a3b	-0.024586787
85	0x3b268d4a	0.0025413805
86	0x3c8f5561	0.017496767
87	0x3d1a2822	0.03763593
88	0xbc6bda2b	-0.014395277
89	0x3bfb2550	0.00766436
90	0xbc584de7	-0.013202167
91	0xbab2e0e3	-0.0013647344
92	0x3cb3e532	0.021959875
93	0x3d20c3fe	0.039249413
94	0xbca81ec3	-0.02052248
95	0x3aa54edb	0.0012612002
96	0xbc12ef34	-0.008968163
97	0xbcc1ea5a	-0.023671318
98	0x3c471fc8	0.012153573
99	0xbd0004b7	-0.031254496
100	0xbb4b8177	-0.003105251
101	0xbc240761	-0.010011525
102	0x3bd7fbd8	0.0065913014
103	0xbc9ca46f	-0.019121377
104	0xbb37f82d	-0.0028071508
105	0x3d1ff856	0.03905519
106	0x3c9a5294	0.018838204
107	0xbcf9463b	-0.030428996
108	0x3cb9db69	0.02268763
109	0xbcfa8b45	-0.030583987
110	0xbc5c6abc	-0.013453182
111	0x3c2a8918	0.010408662
112	0x3c80307d	0.015648121
113	0xbc1078f8	-0.008817904
114	0x3cb5d2cf	0.022195248
115	0x3ca96eab	0.020682653
116	0x3d02a44e	0.031894974
117	0xbcb4b38e	-0.022058275
118	0xbbd26142	-0.0064202854
119	0x3c1b59b6	0.009481838
120	0x3c604373	0.013687956
121	0xbd1b0a4f	-0.037851628
122	0x3c334ac4	0.0109431185
123	0xbc8efb93	-0.017453944
124	0x3cfbd12a	0.030739386
125	0x3bc4b053	0.006002465
126	0x3c89fbc2	0.01684368
127	0x3cfa5e9e	0.030562695
128	0xbcbc604d	-0.022995139
129	0xbcc93d60	-0.024565399
130	0x3b963abf	0.00458464
131	0x3cbb79b9	0.02288519
132	0xbcbb7850	-0.022884518
133	0xba4b31b1	-0.000775124
134	0xbc0c8ddd	-0.008578745
135	0xbcfe7478	-0.031061396
136	0x3d23dde7	0.040006544
137	0xbcf4a133	-0.029862022
138	0xbd117de8	-0.035520464
139	0x3cb6d930	0.02232036
140	0xbd11dbf4	-0.035610154
141	0xbd160e1b	-0.036634546
142	0x3cc22db6	0.023703437
143	0xbd06d26f	-0.03291553
144	0xbc14c7f4	-0.009080876
145	0xbc13e55b	-0.009026851
146	0x3d015ddd	0.031583656
147	0x3cd370c6	0.02581061
148	0xbc695257	-0.014240823
149	0xbd1ee51b	-0.03879271
150	0xbd202340	-0.039096117
151	0x3d1cb1cd	0.0382555
152	0x3c69fd27	0.014281548
153	0xbd0c30a6	-0.034226082
154	0xbcd88db6	-0.02643476
155	0x3c0441ba	0.008072311
156	0xbcbf4dcb	-0.023352524
157	0xbccbcbf8	-0.024877533
158	0x3ca4bb2f	0.020108787
159	0x3ccb2304	0.02479697
160	0xbc998828	-0.018741682
161	0xbcd8b293	-0.026452338
162	0x3cca3bfa	0.024686802
163	0xbc60526e	-0.013691528
164	0xbb1e9907	-0.0024200098
165	0x3c8216d8	0.015880033
166	0xbd187734	-0.037223056
167	0x3bfb4f3d	0.007669358
168	0xb9e9da2f	-0.00044603783
169	0xba0a146d	-0.0005267326
170	0x3ce733ad	0.028222883
171	0x3bcb2c39	0.00620034
172	0x3b8c9299	0.0042899367
173	0x3c2aaa78	0.0104166195
174	0x3ad7f526	0.0016476258
175	0x3c874e44	0.016516812
176	0x3c629d74	0.013831485
177	0xbd0d8b6c	-0.03455679
178	0xbc189d48	-0.0093148425
179	0xbcd945bb	-0.026522508
180	0xbb1ab801	-0.002360821
181	0x3d0c29bb	0.034219485
182	0x3bb75dc7	0.005595896
183	0x3c978cf8	0.018499836
184	0xbd09664e	-0.03354483
185	0xbcc9ccb3	-0.024633741
186	0x3c6cbad9	0.014448845
187	0x3c89f568	0.016840652
188	0x3d229ffd	0.039703358
189	0x3d2299a7	0.039697316
190	0xbd1fa3b5	-0.038974483
191	0x3cc4a504	0.024004467
192	0xbd12e6dd	-0.0358647
193	0xbcc7b138	-0.024376497
194	0xbb475a24	-0.0030418718
195	0xbc899a47	-0.016797198
196	0xbb06c125	-0.00205619
197	0xbd0cfa92	-0.03441865
198	0x3d140309	0.036135707
199	0x3bbf3118	0.00583471
200	0x3c626aa0	0.013819367
201	0x3d1f17f8	0.038841218
202	0x3d06a7a5	0.032874722
203	0x3c05b58a	0.008160958
204	0x3d1b7681	0.03795481
205	0xbc0858fc	-0.008321997
206	0x3cda4196	0.026642602
207	0x3b9a8aef	0.004716269
208	0xbd1b6707	-0.03794005
209	0x3cec45ed	0.028841937
210	0x39616cad	0.00021498157
211	0xbc710396	-0.014710328
212	0x3d141eb4	0.036162093
213	0x3ca33a88	0.01992537
214	0xbb7666b1	-0.003759783
215	0xbccc8b88	-0.024968877
216	0x3d0fedde	0.035138957
217	0x3a891489	0.001045839
218	0x3c2ce658	0.010552965
219	0x3ce4b28b	0.027917167
220	0x3b9ed610	0.0048472956
221	0xbbd36460	-0.0064511746
222	0x3d10ce48	0.035352975
223	0xbd1ebc9f	-0.0387541
224	0x3cdc892e	0.026920881
225	0xbcf56389	-0.029954689
226	0x3c82c9c0	0.015965343
227	0x3cb5ea0a	0.022206325
228	0x3c353d18	0.011061929
229	0x3ca3e12e	0.020004835
230	0xbcc985bc	-0.024599902
231	0x39dabe9b	0.00041722212
232	0xbc2bd815	-0.01048853
233	0xbd0f80eb	-0.035035055
234	0x3d0f3449	0.034961972
235	0x3cb2194e	0.021740582
236	0xbd120db5	-0.035657603
237	0xbc93b231	-0.018029304
238	0xba0aaa55	-0.00052896637
239	0xbb90590b	-0.004405146
240	0xbc8cab79	-0.017171608
241	0x3ce565fd	0.028002733
242	0x3c4db1aa	0.012554565
243	0x3cc1113c	0.023567788
244	0xbc52cd62	-0.01286635
245	0xbca468d4	-0.020069517
246	0x3c2eb612	0.010663526
247	0xbca32bbb	-0.019918313
248	0x3b76ebf1	0.0037677253
249	0x3cb748eb	0.022373637
250	0x3ce7641b	0.028245976
251	0xbd08f6d0	-0.033438504
252	0x3ce1084c	0.027469777
253	0x3c8e85a1	0.017397704
254	0xbd108629	-0.035284195
255	0xbcd4826a	-0.025941093

encoder.0.bias f4 [128]
0	0xbd176564	-0.036961928
1	0xbcb73ed0	-0.022368819
2	0x3c6ffe15	0.01464798
3	0xbd301e9f	-0.042997953
4	0xbc13d670	-0.009023294
5	0xbc724516	-0.014786979
6	0xbd09094b	-0.033456128
7	0x3c915fc8	0.017745867
8	0xbcc3de5d	-0.023909742
9	0x3bedcc7a	0.0072570415
10	0xbce93b1f	-0.028470574
11	0xbc741ac6	-0.014898961
12	0xbcda9606	-0.026682865
13	0xbd149d8a	-0.036283053
14	0xbc9e7bd5	-0.019346157
15	0x3cca2479	0.024675595
16	0x3ce68414	0.028139152
17	0xbccd741a	-0.025079776
18	0xbc7fb71c	-0.0156076215
19	0x3c510707	0.012758023
20	0xbcd425c6	-0.025896918
21	0x3c2071bf	0.009792744
22	0xbd3729d1	-0.044717614
23	0xbd361bef	-0.044460233
24	0xbc480bb1	-0.012209819
25	0x3b3f74a8	0.002921382
26	0xbc70772c	-0.01467685
27	0xbd23bd53	-0.039975476
28	0x3db4c882	0.08827306
29	0xbbbaf6fe	-0.0057057133
30	0xbbc68e28	-0.006059427
31	0xbc88c060	-0.016693294
32	0xbbe1cb44	-0.006890686
33	0x3cdde2ae	0.027085628
34	0x3d0d4dda	0.034498073
35	0x38cc0db5	9.730031e-05
36	0x3c2cf5c9	0.010556647
37	0xbc9ab8d5	-0.018886963
38	0xbd19584c	-0.037437722
39	0x3b553120	0.0032530501
40	0xbd21c49d	-0.039494146
41	0x3c34df9b	0.01103964
42	0x3ca9960e	0.020701434
43	0xbcead63a	-0.028666604
44	0xbb0b9ef3	-0.0021304458
45	0xbc3a9cab	-0.011389892
46	0xbc3af556	-0.011411032
47	0xbcbe920a	-0.023262996
48	0xbbda0739	-0.006653693
49	0xbc976ef3	-0.018485522
50	0xbd7ee942	-0.06223417
51	0xbc71c90d	-0.014757407
52	0xbdaa0b11	-0.08302892
53	0x3d1947df	0.037422057
54	0xbc545714	-0.012960214
55	0xbcc53c35	-0.02407656
56	0xbd8009cd	-0.06251869
57	0x3c98bfa5	0.01864607
58	0x3c3062dd	0.010765758
59	0x3cc77620	0.024348319
60	0x3be9fff5	0.007141108
61	0x3d123900	0.03569889
62	0xbd06cf03	-0.032912266
63	0xbd40b425	-0.0470468
64	0x3cbdafda	0.023155142
65	0xbcfca58b	-0.030840656
66	0x3ca4481f	0.020053921
67	0xbd607d20	-0.05480683
68	0xbd08379b	-0.033256155
69	0x3cd713d6	0.026254576
70	0xbbb175c0	-0.005415648
71	0x3ca8f3f9	0.020624148
72	0xbd39c8dc	-0.04535757
73	0xbd05d60d	-0.032674838
74	0x3ca53bdb	0.020170143
75	0xbb4ef93c	-0.003158166
76	0x3cddd6f0	0.02708003
77	0xbcc7b728	-0.024379328
78	0x3c0029cb	0.007822464
79	0xba70d0d3	-0.00091863907
80	0xbb87f687	-0.0041492614
81	0xbc433ff8	-0.011917107
82	0xbd84befd	-0.064817406
83	0x3bbdff2a	0.00579824
84	0xbcbc8988	-0.023014799
85	0xbcc31632	-0.023814294
86	0x3cc8fe35	0.024535278
87	0x3cfd512c	0.030922495
88	0x3cf31e23	0.029677456
89	0xbd1de183	-0.038545143
90	0x3c1615a4	0.009160433
91	0xbcd94089	-0.02652003
92	0xbdf573cf	-0.11984979
93	0x3cbbd3fe	0.022928234
94	0x3cd4c383	0.025972134
95	0xbcbccefa	-0.023047913
96	0x3c42abab	0.011881749
97	0xbd6715c4	-0.05641724
98	0x3bb706bf	0.005585521
99	0xbd0c298a	-0.034219302
100	0xbce49d12	-0.027906928
101	0xbc6e9fe5	-0.014564489
102	0xbd342029	-0.043975983
103	0x3cc47e18	0.023985907
104	0xbccc9cc5	-0.024977097
105	0xbc995f82	-0.0187223
106	0xbaeb2385	-0.0017939663
107	0xbce46f95	-0.027885238
108	0xbd298bb6	-0.041393004
109	0x3ce6ec20	0.028188765
110	0xbbe062de	-0.0068477234
111	0x3c81f811	0.015865358
112	0x3c3866bd	0.011254963
113	0x3c6e2ec5	0.014537518
114	0x3d0b642e	0.034031086
115	0x3d1129fc	0.03544043
116	0x3d12e7de	0.035865657
117	0x3d1a6804	0.037696853
118	0xbcce4982	-0.025181536
119	0x3cfec659	0.031100439
120	0xbd27b831	-0.040947143
121	0xbc5e5e43	-0.013572278
122	0xbd83214b	-0.064028345
123	0xbbb5af55	-0.005544583
124	0xbcc50711	-0.024051221
125	0xbcfb1085	-0.030647526
126	0x3c9de216	0.019272845
127	0x3b6568a6	0.0035005002

encoder.2.weight f4 [64, 128]
0	0xbd45dbce	-0.048305325
1	0xbd8031f6	-0.06259529
2	0x3cbdf3bc	0.02318751
3	0x3c7adfc0	0.015312135
4	0x3da2365c	0.079205245
5	0xbcf1ad4f	-0.029501585
6	0x3be7e65d	0.007077022
7	0x3d83abae	0.0642923
8	0x3d94c8e5	0.0726488
9	0xbd6b2c10	-0.05741507
10	0xbd84be04	-0.06481555
11	0x3d84e8e7	0.06489735
12	0x3bb61940	0.0055572093
13	0xbd58ad94	-0.052899912
14	0x3d84f3d6	0.064918205
15	0xbd0e3b81	-0.034724716
16	0xbd6d0ef4	-0.05787559
17	0xbcb09457	-0.021555109
18	0xbbb4bd60	-0.0055157393
19	0x3caa7f12	0.020812545
20	0xbd1f2714	-0.038855627
21	0xbd33950f	-0.043843325
22	0x3b70e16d	0.0036755458
23	0xbd134ac4	-0.035959974
24	0x3ca658e7	0.020306064
25	0x3db2db5c	0.08733246
26	0xbcffe86d	-0.031238759
27	0xbce8ebc3	-0.028432732
28	0xbd847c29	-0.06468994
29	0x3caeec58	0.021352932
30	0x3d4ff647	0.050771978
31	0x3b99c531	0.0046926965
32	0xbc92a06e	-0.017898764
33	0x3b328b8f	0.0027243828
34	0xbd70a20f	-0.0587483
35	0xbd63d44a	-0.055622377
36	0x3da904df	0.08252882
37	0x3d0b3489	0.03398565
38	0x3ddd28c9	0.10798795
39	0x3d80f18d	0.06296072
40	0xbb5e168d	-0.0033887953
41	0xbd7aaa68	-0.06119767
42	0x3d5c274b	0.05374841
43	0xbc8b62f3	-0.017014956
44	0x3d39b8df	0.045342322
45	0xbd1df93f	-0.038567778
46	0x3d02c6c0	0.031927824
47	0x3d9cf956	0.076647446
48	0x3d37690a	0.044777907
49	0x3c4ee99f	0.012628942
50	0xbd19bea7	-0.037535336
51	0xbbb8de12	-0.005641707
52	0x3d14a20e	0.03628736
53	0xbd12e43c	-0.035862193
54	0x3c32b998	0.010908507
55	0xbc4c2a00	-0.012461185
56	0x3cab17b6	0.02088533
57	0xbd4686eb	-0.04846851
58	0xbd3807c8	-0.044929296
59	0x3cd7d202	0.026345257
60	0xbd8ac440	-0.06775713
61	0x3d085fd8	0.03329453
62	0xbc1ab3b0	-0.009442255
63	0x3d760c79	0.06007049
64	0x3d82e313	0.06390967
65	0xbd5fe54e	-0.05466204
66	0x3da486fe	0.0803356
67	0x3db4a7fd	0.08821104
68	0x3c6e86d8	0.014558516
69	0xbd3dd521	-0.046345834
70	0x3cdcb777	0.026942952
71	0x3d8c1487	0.06839853
72	0x3db61d9b	0.088923655
73	0x3d61e828	0.055153042
74	0xbc621707	-0.013799435
75	0xbda59159	-0.080843635
76	0x3d837f19	0.06420726
77	0x3d83adae	0.06429611
78	0x3d85b786	0.06529145
79	0x3d5b8865	0.053596873
80	0x3db025af	0.086009376
81	0x3b814296	0.0039447052
82	0x3e1b8a42	0.1518946
83	0xbdc5c0bf	-0.09655904
84	0x3da31068	0.079621136
85	0x3d177b8e	0.036983065
86	0x3c39a566	0.011330938
87	0xbd984a92	-0.07436098
88	0x3d2dbe94	0.042418078
89	0x3b89aefc	0.004201768
90	0x3d9a7eed	0.075437404
91	0x3c2e73be	0.010647712
92	0x3c565920	0.0130827725
93	0xbd35869d	-0.04431783
94	0x3d9c5d72	0.07635011
95	0x3d5b6326	0.053561352
96	0x3aa6ef0f	0.001273604
97	0xbd2319ee	-0.03981965
98	0xbc6f7e3c	-0.014617499
99	0x3c85aa08	0.016316429
100	0xbbbe3726	-0.005804914
101	0xbd0867f2	-0.033302255
102	0x3d011887	0.03151753
103	0x3d39e0b1	0.045380298
104	0xbcfc291d	-0.030781323
105	0x3d5839ee	0.05278962
106	0x3da2f12a	0.07956155
107	0xbc9e1b57	-0.019300146
108	0x3d7fac46	0.062420152
109	0xbd80637b	-0.062689744
110	0xbda23db7	-0.079219274
111	0xbd9d9b77	-0.07695668
112	0xbda81793	-0.082076214
113	0xbc8cda16	-0.017193835
114	0xbd990f75	-0.07473651
115	0x3d78a59e	0.06070482
116	0xbd0faddf	-0.035077926
117	0x3c86b8d2	0.016445551
118	0xbd476fb2	-0.048690505
119	0xbd9661a2	-0.07342841
120	0xbbeeb78e	-0.007285065
121	0xbd64a70b	-0.055823367
122	0x3d97c3fa	0.074104264
123	0x3c318e34	0.0108371265
124	0x3d93d234	0.072178274
125	0x3b1fe77c	0.002439945
126	0x3b631d87	0.003465505
127	0x3c82be2b	0.01595982
128	0xbd918e5b	-0.0710723
129	0x3d2938ca	0.041313924
130	0x3d3b689c	0.04575406
131	0x3d49cec1	0.04926944
132	0x3c7f9e90	0.015601769
133	0xbd227caf	-0.03966969
134	0xbb022822	-0.0019860347
135	0x3d3c7f57	0.04601988
136	0x3d51f7b9	0.051261637
137	0x3d6be5f1	0.057592336
138	0xbcd4d9b1	-0.02598271
139	0xbdb45308	-0.088048995
140	0xbd8bced5	-0.068265595
141	0xb8c63a7a	-9.452268e-05
142	0xbcd63464	-0.026148029
143	0xbd71dfe3	-0.059051406
144	0x3d5b209a	0.05349789
145	0x3d8fa2b9	0.07013459
146	0x3da66f04	0.08126643
147	0xbcc0f5ee	-0.023554768
148	0x3c08a56f	0.008340224
149	0x3d232d3f	0.039838072
150	0x3dcb7422	0.0993426
151	0xbd842f64	-0.064543515
152	0x3d2c7c5f	0.042110797
153	0x3c3ca92b	0.011514942
154	0xbd1a5642	-0.037679918
155	0x3d8f125c	0.06985924
156	0xbd8259e4	-0.063648015
157	0x3d67850c	0.056523368
158	0xbc91ea81	-0.017812015
159	0x3db12b4a	0.08650835
160	0xbcf59b91	-0.029981406
161	0x3b8a5990	0.0042221025
162	0x3d51df11	0.051238123
163	0x3d850b2e	0.06496273
164	0xbd917251	-0.07101882
165	0xbccd70a3	-0.025078123
166	0x3d91fe04	0.07128528
167	0xbd78a1dd	-0.06070124
168	0x3d4d09dc	0.05005823
169	0xbce491e7	-0.027901603
170	0xbdaa8b26	-0.08327322
171	0xbd4734f0	-0.04863447
172	0xbd22e12d	-0.039765526
173	0xbd1b51d4	-0.037919834
174	0x3d8ab14d	0.06772099
175	0x3d9be71e	0.076124415
176	0xbda8f18e	-0.08249198
177	0xbcf899af	-0.03034672
178	0xbcd79810	-0.026317626
179	0xbd4ea4c6	-0.05045011
180	0xbc01c8b5	-0.007921387
181	0x3cfd947d	0.030954594
182	0xbde07beb	-0.109611355
183	0x3d2d2a10	0.042276442
184	0x3dc2d6cd	0.09513626
185	0x3d77202d	0.06033342
186	0x3cdb0110	0.026733905
187	0xbd2ca571	-0.042149965
188	0x3d5af537	0.05345651
189	0x3c9c05cb	0.019045731
190	0x3d91fc0e	0.07128154
191	0x3d10cca0	0.035351396
192	0x3dbd285c	0.092362136
193	0xbd1126d2	-0.035437413
194	0x3c6f031e	0.014588146
195	0xbb5032a4	-0.0031768465
196	0xbd87f3e7	-0.066383176
197	0x3bfef0e1	0.00778018
198	0x3cec959e	0.028879937
199	0x3d936a7f	0.07198047
200	0xbe02195e	-0.1270499
201	0x3c8784cb	0.016542813
202	0xbc86be4e	-0.016448166
203	0x3d9823f5	0.07428733
204	0xbda9f7d8	-0.082992256
205	0x3d87974c	0.066206545
206	0xbc6ce141	-0.014458002
207	0xbbb6386f	-0.0055609266
208	0x3c469128	0.012119569
209	0xbb6fb77d	-0.0036577873
210	0xbc8aa797	-0.016925616
211	0xbd7f01a7	-0.062257435
212	0xbe0534c0	-0.13008404
213	0xbd04ac8f	-0.032391127
214	0x3d7d7c86	0.061886333
215	0x3bc2fd45	0.0059506022
216	0xbda6eac4	-0.08150247
217	0xbd0f597e	-0.034997456
218	0x3cd8dea3	0.026473349
219	0xbd86fd60	-0.06591296
220	0xbaf64416	-0.0018788602
221	0x3a89cbf1	0.001051305
222	0xbd917ae4	-0.07103518
223	0xbd1ac6cb	-0.03778724
224	0xbd14bbec	-0.03631203
225	0x3cae0223	0.021241253
226	0x3d3217db	0.04347978
227	0xbd602ca3	-0.05473007
228	0xbd881aa1	-0.06645704
229	0xbda4468a	-0.08021267
230	0x3d8052bf	0.062657826
231	0x3d8086fa	0.06275745
232	0xbd5337b1	-0.051566783
233	0x3cb4461e	0.02200609
234	0x3d03c362	0.032168753
235	0x3d592ae1	0.053019408
236	0x3c86811c	0.016418986
237	0x3d8fff39	0.07031102
238	0xbc80cd65	-0.01572294
239	0xbbc34e5c	-0.005960269
240	0xbc28c689	-0.010301241
241	0xbd9d9042	-0.076935306
242	0x3c9fce25	0.019507477
243	0x3cb5e8ed	0.022205794
244	0xbd2f7250	-0.042833626
245	0x3a8436bf	0.0010087116
246	0x3d7917b8	0.060813636
247	0xbdda888d	-0.10670576
248	0x3d536a8a	0.051615275
249	0x3d590def	0.052991804
250	0xbc08fe08	-0.008361347
251	0xbdae337d	-0.08505914
252	0x3d0be3aa	0.034152664
253	0xbce97d72	-0.0285022
254	0x3da74588	0.08167559
255	0xbc12b067	-0.00895319

encoder.2.bias f4 [64]
0	0x3b862634	0.0040939096
1	0xbd912fd2	-0.07089199
2	0xbd863ae2	-0.065542
3	0xbb3c7701	-0.0028757455
4	0x3c767560	0.015042633
5	0x3da45418	0.08023852
6	0x3cf6d428	0.03013046
7	0xbd4d594b	-0.050133985
8	0xbd2342aa	-0.039858498
9	0x3dbbed61	0.09176136
10	0xbdd20c09	-0.10256202
11	0xbb34a6a3	-0.0027565144
12	0xbd8cfdea	-0.06884368
13	0xbd59c1cb	-0.05316333
14	0x3dc6ec6d	0.097130634
15	0xbd0635d7	-0.03276619
16	0xbe066111	-0.13122965
17	0x3d78daea	0.060755648
18	0x3dcd8369	0.1003483
19	0x3dc718be	0.09721516
20	0xbdc468af	-0.09590279
21	0x3d74d2e6	0.05977144
22	0x3c81dd30	0.01585254
23	0x3d8ae84f	0.067825906
24	0xbd70ecec	-0.058819696
25	0xbc314945	-0.0108206915
26	0xbd65104d	-0.05592375
27	0x3c1ea6d4	0.00968333
28	0x3c6ecc37	0.014575056
29	0x3c2411d8	0.01001402
30	0x3da2c977	0.079485826
31	0xbd8b104f	-0.0679022
32	0x3ccc6814	0.024951972
33	0x3b1cd216	0.0023928932
34	0xbce5dbe5	-0.028058955
35	0x3db8f44f	0.09030973
36	0xbd0c58f0	-0.034264505
37	0xbc68cfc4	-0.014209691
38	0x3b460658	0.0030216184
39	0x3d77f302	0.060534485
40	0xbd92fb73	-0.071768664
41	0x3d730b05	0.05933668
42	0x3c8a77cd	0.016902829
43	0xbc542589	-0.012948402
44	0x3daf6d06	0.085657164
45	0xbd889928	-0.06669837
46	0x3db2732e	0.08713375
47	0x3dbfb55f	0.09360766
48	0x3d7c4d02	0.061596878
49	0x3d5e3703	0.054251682
50	0xbd370616	-0.04468354
51	0x3ddc560d	0.107586004
52	0xbcc979ab	-0.024594149
53	0xbc86d17c	-0.016457312
54	0x3d507af8	0.050898522
55	0xbd949a9c	-0.07256052
56	0x3d88b7c5	0.06675676
57	0x3c81d395	0.01584796
58	0xbd4d6090	-0.050140917
59	0xbdfbc16b	-0.12292751
60	0x3d75b947	0.059991147
61	0x3d3142f4	0.043276742
62	0xbd15d9ff	-0.03658485
63	0x3d37f139	0.044907782

decoder.0.weight f4 [128, 64]
0	0x3e02685c	0.12735122
1	0x3d95ad8b	0.07308491
2	0x3dd7874c	0.10523853
3	0x3b4e5d36	0.0031488664
4	0x3dc1d0cd	0.09463654
5	0x3d27cad4	0.040964916
6	0xbd176f5e	-0.036971442
7	0xbd1a01f4	-0.03759952
8	0xbdaf7e2f	-0.085689895
9	0x3b379f0a	0.0028018379
10	0xbdba78da	-0.09105082
11	0x3d8003a2	0.06250693
12	0x3deb5569	0.114909
13	0xbca89946	-0.020580899
14	0xbd094b94	-0.033519343
15	0x3df2d114	0.11856285
16	0xbd1a4a37	-0.037668433
17	0x3db7b7af	0.08970582
18	0x3b0f8ca8	0.0021903906
19	0xbd03f0d3	-0.03221209
20	0x3ce3d5dc	0.027811937
21	0xbdd970df	-0.106172316
22	0x3cfdb7c3	0.030971413
23	0x3d93f18a	0.07223804
24	0x3dc47fa5	0.09594659
25	0xbd6bb32e	-0.057543926
26	0xbcc363b0	-0.023851246
27	0xbde89abe	-0.1135764
28	0x3c521a83	0.012823704
29	0x3cdf8693	0.02728585
30	0xbde761b5	-0.11297933
31	0x3c844568	0.016146377
32	0x3dbc3601	0.09189988
33	0x3dc1b86f	0.09459006
34	0x3e002846	0.12515363
35	0xbde1a25f	-0.11017298
36	0xbd8dd5c5	-0.06925539
37	0xbd13aa9b	-0.036051374
38	0xbd0a69ae	-0.03379219
39	0xbd11e457	-0.035618152
40	0x3aa33220	0.0012450852
41	0x3debaded	0.11507783
42	0x3dea5a77	0.11443036
43	0xbc85dbc7	-0.01634015
44	0xbca4b71f	-0.02010685
45	0x3d963607	0.07334524
46	0xbda8c4cc	-0.08240661
47	0xbe0cf8dd	-0.13766809
48	0xbc92b7dd	-0.017909938
49	0xbdf2ce1a	-0.11855717
50	0x3dde73ad	0.10861907
51	0xbcc27432	-0.023737047
52	0xbd5d36de	-0.054007404
53	0xbcb2cd23	-0.021826332
54	0xbd2bd6a2	-0.041952737
55	0x3e011c01	0.12608339
56	0x3dab72b1	0.08371485
57	0xbda74aab	-0.08168539
58	0xbd828604	-0.06373218
59	0x3cce6e88	0.02519919
60	0xbde996b0	-0.114056945
61	0xbdf7f0fb	-0.1210651
62	0x3dc12947	0.09431701
63	0xbd178267	-0.036989596
64	0xbbbb9292	-0.0057242597
65	0x3d1a8b3f	0.03773045
66	0xbdc452cb	-0.09586104
67	0xbd2cd6e2	-0.042197116
68	0xbd8084a9	-0.06275303
69	0xbc98fbd3	-0.018674767
70	0x3cc85ee5	0.024459312
71	0xbe0191de	-0.126533
72	0xbc731433	-0.014836359
73	0xbde57dc1	-0.11205626
74	0x3dac2731	0.08405913
75	0xbd5c7296	-0.053820215
76	0x3da9640d	0.08271036
77	0x3cd752fd	0.02628469
78	0x3e0005b2	0.12502173
79	0x3d543266	0.051805876
80	0xbc8a02fc	-0.016847126
81	0x3d68b7aa	0.05681578
82	0x3df42c47	0.11922508
83	0x3cec544e	0.028848793
84	0xbcc3a91b	-0.023884347
85	0x3d69229a	0.056917764
86	0x3d13eec2	0.03611637
87	0xbdc7d413	-0.09757247
88	0x3ddc7c2d	0.10765872
89	0x3d2b9d87	0.041898277
90	0xbdc5b691	-0.096539624
91	0xbd5e9c72	-0.054348417
92	0x3d069866	0.032860182
93	0xbc8f1076	-0.017463904
94	0xbd53337e	-0.05156278
95	0xbd3517a7	-0.04421201
96	0x3c4b6028	0.012413062
97	0x3cb01e45	0.021498809
98	0x3ddb273d	0.107008435
99	0xbd9943b7	-0.07483619
100	0xbcd4878b	-0.025943538
101	0x3ba55b66	0.005046296
102	0xbd821d4f	-0.063532464
103	0x3d32a7a2	0.0436169
104	0xbdaeafe8	-0.08529645
105	0x3dbad4c9	0.09122617
106	0xbd58d542	-0.052937753
107	0xbdf507e5	-0.119643964
108	0x3d9fd885	0.0780497
109	0xbdcfc2a1	-0.101445444
110	0x3c6d0b78	0.014468066
111	0x3e03a7ec	0.12857026
112	0x3e027837	0.12741171
113	0xbd5b1212	-0.05348403
114	0x3d53666b	0.051611345
115	0xbd299ede	-0.041411273
116	0x3d457086	0.048203014
117	0x3ca922a3	0.020646399
118	0xbdf36861	-0.11885143
119	0x3cfc9ff3	0.030837988
120	0xbdd6a523	-0.10480716
121	0x3dc8aece	0.09798966
122	0xbdc941d5	-0.098270096
123	0x3dde00f9	0.10840029
124	0x3e00f954	0.12595111
125	0x3ded24c5	0.11579279
126	0x3dd429a9	0.103595085
127	0x3defeb0f	0.11714756
128	0x3d53f22d	0.05174463
129	0xbd0af7a0	-0.03392756
130	0x3dac9e01	0.08428574
131	0xbd4c7b8f	-0.049922522
132	0x3d732e60	0.0593704
133	0xbda42c30	-0.080162406
134	0xbda81c5a	-0.08208533
135	0x3d6f9989	0.058496032
136	0xbd9be1c4	-0.07611421
137	0xbcf6940c	-0.030099891
138	0x3d3526bf	0.044226404
139	0x3d9b624b	0.07587107
140	0x3d31986a	0.043358244
141	0xbcb2ba88	-0.02181746
142	0xbdff08d7	-0.12452858
143	0x3d18dfef	0.037322935
144	0xbdac6cb9	-0.08419175
145	0xbdeab65f	-0.11460566
146	0x3df0d319	0.11759014
147	0x3da5d653	0.0809752
148	0x3c02a901	0.007974864
149	0xbdfaa897	-0.12239187
150	0xbdd0b153	-0.10190072
151	0xbd2f6d35	-0.042828757
152	0xbdd0ae3f	-0.10189485
153	0xbdd86a34	-0.10567132
154	0x3d30a916	0.043130003
155	0xbd0346e4	-0.03205003
156	0x3d5ee27b	0.054415207
157	0xbd975343	-0.07388928
158	0xbd84fc0a	-0.06493385
159	0x3dce0cea	0.10061057
160	0x3cdca993	0.026936328
161	0xbd8929bf	-0.066974156
162	0xbdaedaf0	-0.08537853
163	0xbd20c171	-0.03924698
164	0xbc9a0356	-0.018800419
165	0xbccec5a3	-0.025240725
166	0xbc94373b	-0.018092742
167	0xbdd4ae4e	-0.103848085
168	0xbcca24d6	-0.024675768
169	0x3da36d17	0.079797916
170	0x3dbd5618	0.09244937
171	0xbd0cd685	-0.03438427
172	0xbb43f8a2	-0.0029902835
173	0x3d0cdfc7	0.0343931
174	0x3de71e4b	0.11285075
175	0x3d2a685b	0.041603427
176	0xbd291be9	-0.041286383
177	0x3dec2887	0.115311675
178	0xbd17bbd3	-0.037044358
179	0xbd5316a7	-0.051535275
180	0x3d038945	0.032113332
181	0xbdcd54d9	-0.10025949
182	0x3c02f2cf	0.00799246
183	0x3d3261c6	0.043550275
184	0xbd15ba5f	-0.03655469
185	0xbdde0070	-0.10839927
186	0x3dce0e1f	0.10061287
187	0x3d95fd3a	0.0732369
188	0x3cfc8a22	0.030827586
189	0xbdf45f40	-0.1193223
190	0x3ddd2bfe	0.107994065
191	0xbda5eb3d	-0.08101509
192	0x3db025d4	0.08600965
193	0xbdea3532	-0.114359275
194	0xbce31355	-0.02771918
195	0x3dc86c27	0.097862534
196	0xbda11eeb	-0.07867225
197	0xbdce548c	-0.1007472
198	0x3de19996	0.11015622
199	0x3dd694fe	0.10477637
200	0xbd41f507	-0.047352817
201	0x3deb7d7a	0.11498542
202	0x3d83164c	0.06400737
203	0xbde3b9eb	-0.111194454
204	0xbdc3caba	-0.095601514
205	0x3dd0319c	0.10165712
206	0x3c3c1e08	0.011481769
207	0x3be73abb	0.0070565618
208	0xbdac93a4	-0.08426598
209	0xbdaccbea	-0.08437331
210	0xbcc7a035	-0.024368385
211	0xbd3a4d09	-0.045483623
212	0x3d9a1fc4	0.0752559
213	0xbdb2efcc	-0.08737144
214	0xbddcd1ac	-0.10782179
215	0x3d9409dd	0.07228444
216	0x3dea312d	0.11435161
217	0x3db70d45	0.08938078
218	0xbd95bc47	-0.07311302
219	0x3de29678	0.11063856
220	0xbc54316c	-0.012951236
221	0x3c805e96	0.015670102
222	0xbdd40c1f	-0.103538744
223	0x3d93a1d0	0.07208598
224	0xbcd123be	-0.025529739
225	0x3da0409a	0.07824822
226	0xbdb3178a	-0.08744724
227	0xbd937107	-0.07199293
228	0xbd992b61	-0.07478977
229	0xbd3ec46b	-0.046574038
230	0x3c9855f7	0.018595679
231	0x3d83636d	0.06415448
232	0xbda95985	-0.082690276
233	0x3dc277e7	0.09495526
234	0x3d1dc34c	0.038516328
235	0x3d7df44d	0.06200056
236	0xbdd930d3	-0.106050156
237	0xbc981705	-0.018565664
238	0xbe0064e4	-0.12538487
239	0x3cb8b0f8	0.022545323
240	0xbdcfe47a	-0.10151
241	0x3dc457b1	0.09587038
242	0x3da20a32	0.07912101
243	0xbdbe1248	-0.092808306
244	0x3dbd6acb	0.09248885
245	0x3dcc4759	0.09974546
246	0x3d00df15	0.031462748
247	0xbcfdcbc8	-0.03098096
248	0x3b8bb31e	0.004263296
249	0x3d9c1258	0.07620686
250	0x3df0a1b9	0.11749596
251	0x3bfaf95e	0.0076591214
252	0x3d503a2a	0.05083672
253	0x3daaccdc	0.08339855
254	0x3cb500b9	0.022095071
255	0x3d697914	0.057000235

decoder.0.bias f4 [128]
0	0xbd3dd030	-0.04634112
1	0x3df2bf9d	0.118529536
2	0xbd9fb3b6	-0.07797949
3	0x3d8628db	0.06550761
4	0x3d4ae1d1	0.04953176
5	0x3bb2d57c	0.005457578
6	0xbd46a481	-0.048496727
7	0xbd689dc0	-0.056791067
8	0xbd500b3e	-0.05079197
9	0x3db2a777	0.08723348
10	0x3c1d7457	0.009610257
11	0xbc7d4b31	-0.015459822
12	0x3e07aafd	0.1324882
13	0xbd110d20	-0.035412908
14	0xbda26315	-0.07929055
15	0xbc7e5ac9	-0.015524575
16	0x3dd37f1f	0.10326981
17	0xbcfc4e56	-0.030799072
18	0xbd895ffc	-0.06707761
19	0xbdf2ed68	-0.11861688
20	0xbda2cc5c	-0.07949135
21	0x3d38cc60	0.045116782
22	0xbdd561f5	-0.104190744
23	0xbcecde31	-0.028914543
24	0xbdacdb30	-0.08440244
25	0xbe0a664d	-0.13515587
26	0xbda11d40	-0.07866907
27	0xbda3ebd1	-0.08003963
28	0x3db87e38	0.09008449
29	0xbd8b88af	-0.0681318
30	0xbc71a558	-0.014748894
31	0x3d74245c	0.059604988
32	0x3d8e2010	0.06939709
33	0xbdcee79c	-0.1010277
34	0x3d98a754	0.0745379
35	0xbc3e605e	-0.011619655
36	0x3d967f3d	0.073484875
37	0x3dbd9d37	0.09258502
38	0xbdf9d115	-0.12198082
39	0xbdcc2b71	-0.09969223
40	0xbdef9380	-0.11698055
41	0xbdc9fc34	-0.09862557
42	0x3cc77db2	0.024351928
43	0xbc609a43	-0.013708654
44	0x3da43455	0.08017794
45	0xbe09a217	-0.13440739
46	0x3dc71468	0.09720689
47	0x3da302cc	0.07959518
48	0xbd8cc6b9	-0.06873841
49	0xbcaa5f7a	-0.02079748
50	0xbd9621e4	-0.07330683
51	0x3c0e3263	0.008679005
52	0xbd8c7796	-0.06858747
53	0xbd9b3bc3	-0.07579758
54	0x3e0c6553	0.13710527
55	0x3c6e6320	0.01455
56	0x3d8a3fb5	0.067504324
57	0xbb963afb	-0.0045846677
58	0x3d725d4d	0.05917101
59	0x3dbe5fb5	0.092955984
60	0x3dc5bb31	0.096548446
61	0x3c836e95	0.01604394
62	0xbda4e2ce	-0.08051072
63	0xbc81c272	-0.015839789
64	0xbdef3d69	-0.11681635
65	0xbc259669	-0.010106661
66	0x3ca081fc	0.019593231
67	0xbd31768a	-0.04332594
68	0xbd37f019	-0.04490671
69	0x3d93ed89	0.072230406
70	0xbd7f1790	-0.06227833
71	0xbc979524	-0.018503733
72	0x3d947d3e	0.072504506
73	0x3c8507d9	0.016239094
74	0x3a1b8b5f	0.00059335487
75	0x3d7f070f	0.06226259
76	0x3d5073f2	0.050891824
77	0xbc9c6ebe	-0.019095775
78	0xbbd075c5	-0.0063616955
79	0xbdcc6713	-0.09980597
80	0xbcea62ad	-0.028611505
81	0x3dcac2d8	0.09900445
82	0x3d55c34c	0.052188203
83	0xbda93d11	-0.082636006
84	0x3d76ab02	0.06022168
85	0x3d70d3f9	0.058795903
86	0x3ca1ad01	0.019735815
87	0xbd1c8c68	-0.03821984
88	0x3c611bd1	0.013739542
89	0x3dc235a3	0.09482887
90	0x3d57034b	0.052493375
91	0xbdae7ef0	-0.08520305
92	0xbd5eb352	-0.054370232
93	0xbcf768b2	-0.03020129
94	0x3dabd67c	0.08390519
95	0xbde24922	-0.11049105
96	0xbd4d1ff2	-0.050079294
97	0x3d836c69	0.06417162
98	0xbd6ce3c0	-0.057834387
99	0xbdd6e6cc	-0.1049324
100	0x3df0027a	0.11719222
101	0x3cf19cf8	0.029493794
102	0x3cb8643b	0.022508731
103	0xbe1f8c4e	-0.15580866
104	0xbcdbd3a8	-0.026834324
105	0x3e091aa0	0.13389063
106	0xbac1f987	-0.0014799096
107	0xbd9be938	-0.07612842
108	0xbd9757b3	-0.07389774
109	0x3d2127c1	0.039344553
110	0x3db78a76	0.08961956
111	0x3ca12dc3	0.019675141
112	0xbe03f087	-0.12884723
113	0x3dbd20fa	0.092348054
114	0x3e06cb59	0.13163508
115	0x3d83132c	0.06400141
116	0x3c9135eb	0.017725905
117	0xbcadcfb2	-0.0212172
118	0xbd10d7d7	-0.03536209
119	0x3e14d1f6	0.14533219
120	0x3dbec71d	0.093153216
121	0x3dbf8e9a	0.09353371
122	0x3b9f2234	0.0048563723
123	0xbceb1ad7	-0.028699322
124	0xbdde390b	-0.10850724
125	0x3dd080b8	0.10180801
126	0xbd864ccd	-0.06557617
127	0x3c7044ea	0.014664868

decoder.2.weight f4 [600, 128]
0	0x3bea1b3d	0.0071443603
1	0x3dbd65b6	0.092479154
2	0xbca1e0be	-0.019760486
3	0xbb9235c3	-0.0044619753
4	0xbd27d655	-0.040975887
5	0x3d813c73	0.06310358
6	0xbca64226	-0.020295214
7	0x3d80a808	0.062820494
8	0x3c013fc4	0.007888738
9	0x3d91c0f4	0.07116881
10	0x3d859451	0.0652243
11	0xbc9bec84	-0.019033678
12	0xbd84ac6b	-0.064781986
13	0x3b6cfc1e	0.0036161016
14	0x3d3478e2	0.044060595
15	0xbd655ff9	-0.05599973
16	0x3da8a231	0.082340606
17	0x3c1e122a	0.009647885
18	0xbd08db7c	-0.03341244
19	0x3cbd38de	0.023098405
20	0xbc8d9647	-0.017283572
21	0x3dbe5ee0	0.0929544
22	0xbd0c5f34	-0.03427048
23	0xbbc5eba1	-0.006040052
24	0xbda96d86	-0.08272843
25	0x3cbc037f	0.022950886
26	0x3d8d48d1	0.06898654
27	0xbb6a1fb9	-0.0035724475
28	0x3c3461f7	0.011009685
29	0xbc9e027a	-0.01928829
30	0xbd8d9446	-0.069130465
31	0xbd31e16b	-0.043427866
32	0x3c98d5d5	0.01865665
33	0xbc8b9c19	-0.017042207
34	0xbd10cfde	-0.035354488
35	0x3db3be41	0.087765224
36	0x3da77c54	0.081780106
37	0xbd803fb4	-0.062621504
38	0x3cec69b9	0.028859006
39	0x3d8e554c	0.06949863
40	0x3a1a9152	0.0005896288
41	0xbd52cf9a	-0.051467516
42	0xbd3a5f5e	-0.045501105
43	0x3c3a1c30	0.0113592595
44	0xbcf8f857	-0.030391855
45	0xbd9abec4	-0.07555917
46	0xbd747fd5	-0.059692223
47	0x3d5d556a	0.054036535
48	0x3d39ccf9	0.045361493
49	0x3cc21941	0.023693683
50	0xbda3d92a	-0.08000405
51	0x3d96268b	0.0733157
52	0xbd580e6d	-0.052748132
53	0x3d8a599d	0.067553736
54	0xbc7599c6	-0.014990276
55	0x3ca284f5	0.01983879
56	0xbccbd61a	-0.024882365
57	0xbd849056	-0.064728424
58	0xbd42d65f	-0.04756772
59	0xbcd730e2	-0.026268426
60	0xbd3b29e1	-0.045694236
61	0xbcdb36df	-0.026759563
62	0x3d966b57	0.07344692
63	0xbd1b8220	-0.037965894
64	0xbd3677ae	-0.04454773
65	0xbd463645	-0.0483916
66	0x3d4f52e0	0.050616145
67	0x3d82f7bc	0.06394908
68	0x3d4af2fb	0.04954813
69	0xbd8afdba	-0.06786676
70	0x3a4f4fd3	0.0007908318
71	0x3d50f52e	0.05101507
72	0x3cc933ce	0.024560835
73	0xbd655b0d	-0.055995036
74	0xbd261492	-0.04054696
75	0xbd1edbff	-0.038784023
76	0xbcd67f62	-0.026183788
77	0x3da0de5f	0.07854914
78	0x3d87536f	0.066077106
79	0xbd51d4b2	-0.051228233
80	0xbcb74f2c	-0.02237662
81	0xbd76385f	-0.060112353
82	0xbd5fe41e	-0.05466091
83	0x3d618796	0.055060945
84	0xbd0738d2	-0.033013172
85	0x3b8444da	0.004036528
86	0x3ccfeee4	0.025382467
87	0x3dbb28ad	0.09138618
88	0x3e0900a6	0.13379154
89	0xbd8ed772	-0.06974687
90	0xbd395571	-0.0452475
91	0x3d4aa63a	0.049474932
92	0xbc2cf35a	-0.010556066
93	0x3d337743	0.04381491
94	0x3d5e649d	0.05429517
95	0x3d7ee395	0.062228758
96	0x3bb889d8	0.0056316666
97	0xbd0ba03d	-0.034088362
98	0xbd82f973	-0.06395235
99	0xbd2dda0c	-0.042444274
100	0xbd1eeb9f	-0.038798925
101	0xbc97bc9f	-0.018522559
102	0xbd668e7f	-0.05628824
103	0x3dcb0927	0.09913855
104	0xbccfa794	-0.025348462
105	0xbd2d08df	-0.04224479
106	0xbca6a29d	-0.020341212
107	0x3da32c01	0.079673775
108	0x3ce23e33	0.02761755
109	0x3d800de2	0.06252648
110	0xbd3c2241	-0.045931105
111	0xbd52fa03	-0.05150796
112	0xbdcac18f	-0.099001996
113	0x3cfe8d16	0.031073134
114	0x3d828837	0.06373637
115	0x3d9982ef	0.07495677
116	0xbd4ee478	-0.050510854
117	0xbd15e8fa	-0.036599137
118	0x3c85e423	0.016344136
119	0x3c356c1d	0.0110731395
120	0x3c84c3e8	0.016206697
121	0xbd209ee1	-0.03921402
122	0x3d7dea93	0.061991286
123	0xbc281602	-0.010259153
124	0xbce197cd	-0.027538205
125	0xba5c1e29	-0.0008396828
126	0xbdaaacdf	-0.08333754
127	0x3c393b8e	0.011305703
128	0xbd0c82cb	-0.03430442
129	0xbd261253	-0.04054482
130	0x3d9b0ac9	0.075704165
131	0xbd794759	-0.060859058
132	0xbd1cac4c	-0.038250253
133	0x3d75927a	0.059954144
134	0xbd1b5e0b	-0.037931483
135	0x3d211d06	0.03933432
136	0xbce6f4c6	-0.028192889
137	0xbc8d56bc	-0.017253272
138	0xbcd93968	-0.026516631
139	0x3d6ff9c1	0.058587793
140	0xbe199646	-0.14998731
141	0xbd472e23	-0.048627984
142	0x3d4885b2	0.048955627
143	0x3d0581d6	0.032594524
144	0x3d02df68	0.031951338
145	0x3db0b427	0.08628111
146	0xbcfa0b54	-0.03052298
147	0xbbf6a204	-0.007526638
148	0xbdbca7e1	-0.09211708
149	0xbd92859d	-0.07154391
150	0x3d5cbc33	0.05389042
151	0xbd5a8563	-0.053349864
152	0xbd91110a	-0.07083328
153	0x3cabf889	0.020992534
154	0xbc2c1334	-0.010502625
155	0x3d8c975b	0.06864806
156	0xbcfd4c5f	-0.030920206
157	0xbd488cf4	-0.04896255
158	0x3abb0d37	0.0014270906
159	0xbd186861	-0.03720892
160	0x3d20256f	0.0390982
161	0xbc2d5625	-0.0105796205
162	0xbd687b9e	-0.056758516
163	0x3d7b9533	0.061421584
164	0xbd18d612	-0.03731353
165	0x3c0af1af	0.008480473
166	0x3cb27d9e	0.021788415
167	0x3c5d9453	0.013524133
168	0xbbc17ad7	-0.005904536
169	0x3d70e3fc	0.058811173
170	0xbc5b79bd	-0.013395724
171	0x3d659279	0.05604789
172	0x3dae622c	0.085148185
173	0xbd9f1806	-0.07768254
174	0x3d89807e	0.06713961
175	0xbcf66c28	-0.03008087
176	0xbbc3683a	-0.0059633525
177	0x3d133c7f	0.035946365
178	0xbc1bde32	-0.009513425
179	0x3d4637b0	0.04839295
180	0xbd569f1b	-0.05239783
181	0xbd8b9acb	-0.06816634
182	0xbd953556	-0.07285564
183	0x3cbb76ef	0.02288386
184	0xbd593de8	-0.053037554
185	0x3cb7a3a6	0.0224169
186	0xbb7feab4	-0.0039049806
187	0xbc2af8e8	-0.01043532
188	0x3db45209	0.088047095
189	0xbd2d98d7	-0.042382088
190	0xbd05ebe3	-0.032695662
191	0x3b1f8d1c	0.0024345582
192	0xbc9ed0b6	-0.01938663
193	0x3c5c4040	0.013443053
194	0xbc6a052b	-0.014283459
195	0x3d9a02d0	0.07520068
196	0x3d8ac4b4	0.067757994
197	0xbc69d561	-0.014272065
198	0xb9ce294d	-0.00039322153
199	0xbd75e764	-0.060035124
200	0xbd250a3f	-0.040292975
201	0xbd859ebf	-0.06524419
202	0x3d1a2f6e	0.03764289
203	0xbd48d1bf	-0.049028154
204	0x3d48245c	0.0488628
205	0xb9ba070f	-0.00035481944
206	0x3d8d000b	0.06884774
207	0x3c5720ff	0.0131304255
208	0xbbd1d398	-0.006403398
209	0x3d2a7869	0.04161874
210	0x3d835931	0.06413496
211	0xbd737da6	-0.059446
212	0x3d62426d	0.05523913
213	0x3d0e9cf6	0.03481766
214	0x3c0b7d02	0.008513691
215	0x3d7ffd94	0.06249769
216	0xbc91c054	-0.017791905
217	0x3d184958	0.03717932
218	0x3d6a3680	0.05718088
219	0x3d6f75f6	0.058462106
220	0xbc7a505c	-0.015277948
221	0xbd9e1479	-0.077187486
222	0xbc16b605	-0.00919867
223	0x3c2965e1	0.010339231
224	0xbcad243e	-0.021135446
225	0x3dab64ae	0.083688125
226	0xbd8a69c3	-0.06758454
227	0x3d49360a	0.0491238
228	0x3d5d2fe7	0.05400076
229	0xbba7beab	-0.005119165
230	0x3d9f66e6	0.07783298
231	0x3d8de12c	0.06927714
232	0x3d93e797	0.07221907
233	0x3d9416e8	0.072309315
234	0x3d514fae	0.05110138
235	0x3d8e529b	0.069493495
236	0x3ceed8e6	0.02915616
237	0x3d83c410	0.0643388
238	0x3c6044c0	0.013688266
239	0xbcbe800d	-0.023254419
240	0xb95915f0	-0.00020702905
241	0xbcf2400a	-0.029571552
242	0x3c54702c	0.012966197
243	0xbbd5f520	-0.0065294653
244	0x3d7f4db6	0.06232997
245	0xbd51de68	-0.051237494
246	0xbc768754	-0.015046913
247	0x3aaed089	0.0013337295
248	0xbcba44ae	-0.022737827
249	0xbd40ddb3	-0.04708643
250	0xbd2f51db	-0.042802673
251	0xbb25c06d	-0.0025291697
252	0x3c52c3db	0.012864078
253	0x3c9062b7	0.017625196
254	0x3cbe1453	0.02320305
255	0xbd61b587	-0.05510476

decoder.2.bias f4 [600]
0	0x3e11e951	0.1424916
1	0x3da10f5f	0.0786426
2	0x3cf5b11f	0.029991684
3	0x3d5af922	0.053460248
4	0xbbd0a659	-0.0063674864
5	0x3d1036aa	0.03520838
6	0xbbd16640	-0.006390363
7	0x3d95e51b	0.07319089
8	0x3d8dc492	0.069222584
9	0xbd7661c9	-0.06015185
10	0xbb4768ae	-0.0030427384
11	0x3d698d52	0.05701954
12	0xbce7d77c	-0.028300993
13	0x3d1c3329	0.038134728
14	0x3d1e96f9	0.038718197
15	0x3b5c0c1d	0.0033576556
16	0x3bfa6634	0.007641578
17	0x3d5e5d15	0.05428799
18	0x3d105f12	0.035246916
19	0xbd42c3ff	-0.047550198
20	0xbd0159e8	-0.031579882
21	0x3d4dff92	0.05029256
22	0x3c245fda	0.010032618
23	0xbc5b63f7	-0.013390533
24	0x3c7e1bfc	0.015509602
25	0x3d1e5f13	0.03866489
26	0xbd71d900	-0.059044838
27	0x3d4da386	0.050204776
28	0x3d08e57f	0.03342199
29	0x3d1e190f	0.038598116
30	0x3d666a84	0.056253925
31	0x3c449db0	0.012000486
32	0x3c794c47	0.01521594
33	0xbcad76ce	-0.021174815
34	0x3a835d93	0.0010022394
35	0x3dd2e193	0.10296931
36	0x3cb3940e	0.021921184
37	0x3c95d8c4	0.018291838
38	0x3cb25534	0.021769144
39	0x3c1b860f	0.009492411
40	0xbc646087	-0.01393903
41	0x3d493799	0.049125288
42	0xbd32f970	-0.043694913
43	0xb948ffa6	-0.00019168723
44	0x3b117770	0.0022196434
45	0xbd0b0d45	-0.0339482
46	0x3d0adff5	0.03390499
47	0x3d5d4e0d	0.054029513
48	0xbc178e26	-0.009250199
49	0x3d617a85	0.055048484
50	0x3d93b4b7	0.07212203
51	0x3ce90f2c	0.028449617
52	0x3cbb0c35	0.02283297
53	0x3c8983f8	0.01678656
54	0x3d4cf840	0.050041437
55	0x3c2aa112	0.010414379
56	0x3d985006	0.07437138
57	0x3d9774aa	0.07395299
58	0x3c91a1dc	0.017777376
59	0x3b82c13d	0.003990321
60	0x3dac755d	0.08420823
61	0x3c8d3600	0.017237663
62	0x3d8a866e	0.06763922
63	0x3bc71236	0.006075169
64	0x3de9a340	0.114080906
65	0x3d52c6f8	0.051459283
66	0x38a7bd86	7.998482e-05
67	0x3d59945e	0.05312001
68	0xbc7b621e	-0.015343217
69	0xbc264168	-0.01014743
70	0xbca6a93d	-0.020344371
71	0x3c8a4523	0.01687867
72	0x3c2fcfb5	0.010730674
73	0xbd042062	-0.032257445
74	0x3cdf9c29	0.027296143
75	0x3d57c489	0.052677665
76	0x3d86e77d	0.06587122
77	0xbd5a0ca0	-0.053234696
78	0x3e09f4ae	0.13472244
79	0xbc5be449	-0.013421127
80	0x3c90d2ec	0.0176787
81	0xbd080b34	-0.03321381
82	0x3bc29797	0.005938481
83	0x3cffd997	0.031231685
84	0x3db39443	0.08768513
85	0xbd046e19	-0.03233156
86	0x3d1e2a45	0.03861453
87	0x3d0b9726	0.034079693
88	0xbcda1263	-0.026620096
89	0x3bd1088d	0.006379193
90	0x3d2361e9	0.039888296
91	0x3d554b4b	0.052073758
92	0xbc98f674	-0.018672206
93	0x3dbbdad8	0.091726005
94	0x3c22b670	0.009931192
95	0x3d8069d5	0.06270186
96	0x3ca311a8	0.01990588
97	0xbda3ed6a	-0.080042675
98	0x3dc5aa27	0.096515946
99	0x3d8a119a	0.067416385
100	0x3df51688	0.11967188
101	0x3dd47645	0.103741206
102	0xbc418297	-0.01181092
103	0x3e06f981	0.13181116
104	0x3d89ccab	0.067284904
105	0xbb343d38	-0.002750231
106	0x3d3aaf43	0.0455773
107	0x3ca5a19e	0.020218667
108	0x3b7b5404	0.0038349638
109	0x3dbd53cf	0.09244501
110	0x3d180d43	0.037122022
111	0x3d924ef5	0.07143966
112	0xbc13fae2	-0.009031983
113	0x3d93d8b9	0.07219071
114	0xbb4c8c13	-0.003121142
115	0x3dba5787	0.09098726
116	0xbdc62aa2	-0.096761
117	0x3d515962	0.051110633
118	0x3c9f8702	0.019473556
119	0xbda06aca	-0.078328684
120	0xbda0ec0c	-0.07857522
121	0x3d0f3f0f	0.034972247
122	0xbcf134f9	-0.029444205
123	0xbd31ce7b	-0.043409806
124	0x3d9bf4f3	0.0761508
125	0x3cc270d4	0.023735441
126	0xbe168be7	-0.14701806
127	0x3d75de38	0.060026377
128	0xbdfc00ef	-0.123048656
129	0x3ba6e862	0.00509362
130	0x3dde5297	0.108555965
131	0xbc281360	-0.010258526
132	0x3cec105e	0.028816398
133	0x3d9d621c	0.076847285
134	0x3d157d7b	0.03649662
135	0x3e0d1c80	0.13780403
136	0xbce8ef0c	-0.028434299
137	0xbd16d05e	-0.03681981
138	0x3d8ed1a0	0.069735765
139	0x3e24fe48	0.16112626
140	0xbe21b3b1	-0.15791203
141	0x3db9443c	0.09046218
142	0x3e2f20d9	0.17102374
143	0x3dbc3d5c	0.09191391
144	0xbcc2ceee	-0.023780312
145	0xbd457729	-0.048209343
146	0xbca93c94	-0.020658769
147	0x3bb73811	0.0055914004
148	0xbbe97658	-0.0071247034
149	0xbcf53c7b	-0.029936066
150	0x3ce6dc9e	0.02818137
151	0x3d69dbe9	0.05709449
152	0xbd7729e0	-0.06034267
153	0x3d9087f4	0.07057181
154	0xbcb2e49e	-0.021837529
155	0x3d2978fb	0.04137514
156	0x3da45f5d	0.080260016
157	0x3d9aa46e	0.07550894
158	0x3d1fd6f2	0.039023347
159	0x3dbe09f1	0.0927924
160	0x3ce3d5de	0.02781194
161	0xbc8d6861	-0.017261686
162	0x3cb29859	0.02180116
163	0x3e459eb1	0.19298817
164	0xbd44eba3	-0.048076283
165	0x3c8b8517	0.017031236
166	0xbc33e74f	-0.010980441
167	0x3e0f07c2	0.13967803
168	0x3c8e1ecc	0.01734867
169	0xbcd25caa	-0.025678951
170	0xbd2f20bf	-0.04275584
171	0xbd674fd0	-0.0564726
172	0xbdd133b4	-0.1021494
173	0xbd7a1c99	-0.06106243
174	0x3c5d59cf	0.013510182
175	0xbd84030f	-0.06445896
176	0x3de8f6d4	0.11375204
177	0xbdfd74c8	-0.1237579
178	0xbcd69ff4	-0.026199318
179	0x3c87f3da	0.01659577
180	0xbded334d	-0.115820505
181	0x3c9255b1	0.017863126
182	0x3d15d3ae	0.036578827
183	0xbd53b876	-0.051689588
184	0x3c5670a8	0.013088383
185	0xbd54f3bc	-0.051990256
186	0xbc08cddc	-0.008349862
187	0x3e0833ad	0.13300963
188	0xbdc9d51c	-0.098551005
189	0x3de16dd4	0.11007276
190	0x3d8059f7	0.062671594
191	0xbd821eff	-0.06353568
192	0x3d13d6e1	0.036093596
193	0x3d820b8b	0.06349858
194	0x3d8c4890	0.06849778
195	0xbdcf80b8	-0.10131973
196	0x3de59ef7	0.11211961
197	0x3bfa1679	0.0076320735
198	0xbd355d39	-0.044278357
199	0xbdf23dc2	-0.118281856
200	0xbd32da66	-0.043665312
201	0x3d891bc9	0.06694753
202	0xbdb95c43	-0.09050801
203	0x3e418622	0.18898824
204	0xbc4e8436	-0.012604764
205	0x3b5c593c	0.0033622524
206	0x3c369030	0.011142775
207	0xbd4b892c	-0.049691364
208	0x3dce7935	0.10081712
209	0xbda4a0e6	-0.080385014
210	0xbd0ec02d	-0.03485124
211	0xbc925023	-0.017860478
212	0xbe310ac4	-0.17289263
213	0x3e416c68	0.1888901
214	0x3d05560a	0.032552756
215	0x3cc8bfd8	0.02450554
216	0x3df1f8e0	0.11815047
217	0x3de2a3e1	0.11066414
218	0x3d5b4eff	0.053542133
219	0xbcac8a7f	-0.021062134
220	0x3d82319c	0.063571185
221	0x3d964992	0.07338251
222	0x3da95a50	0.08269179
223	0x3c725cb9	0.014792615
224	0xbde536d6	-0.111921
225	0x3c297e7d	0.010345099
226	0x3dc2a6c6	0.09504466
227	0x3c8b83f3	0.017030692
228	0x3d8b87e8	0.068130314
229	0x3d4c3f41	0.04986501
230	0xbe01f01c	-0.1268925
231	0x3cf2bc28	0.029630736
232	0x3c66c37b	0.014084692
233	0xbdd89222	-0.105747476
234	0xbd42ef7e	-0.04759168
235	0xbcbf7895	-0.023372928
236	0x3d4ef59f	0.05052721
237	0xbd0e3d90	-0.03472668
238	0x3d98c5f8	0.074596345
239	0xbe396dec	-0.18108338
240	0x3da32000	0.07965088
241	0xbcccda7e	-0.025006529
242	0xbd847a94	-0.064686924
243	0x3db58277	0.08862775
244	0x3dd0f5c0	0.10203123
245	0xbd9c504b	-0.07632502
246	0xbdd1d5b0	-0.10245836
247	0x3d81cd98	0.06338042
248	0xbc93a126	-0.018021178
249	0xbb54da1c	-0.0032478636
250	0x3e4882de	0.19581172
251	0xbddc273a	-0.107496694
252	0x3e07c00a	0.13256851
253	0x3dcd5f8b	0.10027989
254	0x3d6d103f	0.05787682
255	0xbd4c81d4	-0.0499285
