tight_spiral_autoencoder_fullinfo.pt (torch, 654905 bytes, 8 tensors)

encoder.0.weight f4 [128, 600]
000000 50 e2 b7 bc 29 c3 ba bc 07 e3 bd bc 63 32 c1 bc
       -0.022446781 -0.022798138 -0.023179544 -0.023583597
000010 d9 9d c4 bc 87 18 c8 bc 96 96 cb bc 9b 09 cf bc
       -0.024001049 -0.024425758 -0.024852078 -0.025273135
000020 cf 2f d2 bc 79 11 d5 bc f8 b4 d7 bc 06 20 da bc
       -0.025657563 -0.026009308 -0.02633141 -0.026626598
000030 c5 5d dc bc 7f 75 de bc 3b 6a e0 bc df 40 e2 bc
       -0.026900182 -0.027155636 -0.027394405 -0.027618824
000040 e7 fe e3 bc ce a9 e5 bc 73 42 e7 bc ed ca e8 bc
       -0.027831508 -0.02803507 -0.028229928 -0.028417075
000050 41 44 ea bc f7 ad eb bc 6a 08 ed bc 87 4e ee bc
       -0.028597 -0.028769476 -0.028934676 -0.02909018
000060 99 7f ef bc 2e 9b f0 bc a2 a3 f1 bc fd 9b f2 bc
       -0.029235648 -0.02937087 -0.029496972 -0.029615397
000070 fd 85 f3 bc aa 62 f4 bc 67 34 f5 bc 9c fc f5 bc
       -0.029726977 -0.029832203 -0.029932214 -0.03002768
000080 6c bb f6 bc f9 73 f7 bc 36 27 f8 bc 03 d9 f8 bc
       -0.030118667 -0.030206667 -0.030292135 -0.030376917
000090 cc 8e f9 bc 9c 4f fa bc 03 1b fb bc 5d f9 fb bc
       -0.030463599 -0.030555539 -0.030652529 -0.030758554
0000a0 21 ed fc bc 7b f6 fd bc be 11 ff bc 7b 1e 00 bd
       -0.03087479 -0.03100132 -0.03113639 -0.03127907
0000b0 f3 b9 00 bd 07 59 01 bd 6f f9 01 bd 50 99 02 bd
       -0.031427335 -0.031579044 -0.03173202 -0.03188449
0000c0 4a 36 03 bd e0 ce 03 bd ff 60 04 bd cc eb 04 bd
       -0.032034196 -0.032179713 -0.032319065 -0.032451436
0000d0 3d 6c 05 bd 01 e0 05 bd e3 46 06 bd 62 a2 06 bd
       -0.032573927 -0.03268433 -0.032782447 -0.032869704
0000e0 85 f1 06 bd a2 33 07 bd f0 6a 07 bd 40 99 07 bd
       -0.032945175 -0.033008225 -0.033060968 -0.033105135
0000f0 a6 be 07 bd c6 da 07 bd 08 ee 07 bd a7 f8 07 bd
       -0.0331408 -0.033167623 -0.03318599 -0.033196118
000100 d0 fa 07 bd bd f4 07 bd 2b e7 07 bd c9 d2 07 bd
       -0.033198178 -0.033192385 -0.033179443 -0.033160005
000110 64 b7 07 bd 6f 96 07 bd 9b 72 07 bd 71 4b 07 bd
       -0.03313388 -0.03310245 -0.03306828 -0.03303093
000120 4c 21 07 bd bc f5 06 bd 11 ca 06 bd cb 9e 06 bd
       -0.03299074 -0.032949194 -0.03290755 -0.03286628
000130 9e 74 06 bd e7 4b 06 bd b1 24 06 bd a6 fe 05 bd
       -0.03282606 -0.03278723 -0.032749835 -0.032713555
000140 1f d9 05 bd 81 b3 05 bd a9 8d 05 bd ab 68 05 bd
       -0.032677766 -0.03264189 -0.0326058 -0.032570522
000150 85 45 05 bd 84 23 05 bd 49 01 05 bd 67 de 04 bd
       -0.032537002 -0.032504573 -0.03247193 -0.032438662
000160 28 bb 04 bd 3e 98 04 bd 58 78 04 bd 51 5c 04 bd
       -0.03240505 -0.032371752 -0.03234133 -0.032314602
000170 a4 45 04 bd 0f 36 04 bd 66 2e 04 bd af 2e 04 bd
       -0.032292977 -0.032278117 -0.03227081 -0.032271083
000180 2d 34 04 bd c1 3c 04 bd f3 48 04 bd 06 5a 04 bd
       -0.03227632 -0.032284502 -0.032296132 -0.032312416
000190 cb 71 04 bd 9e 90 04 bd 3d b5 04 bd cd dd 04 bd
       -0.032335084 -0.03236448 -0.032399405 -0.03243809
0001a0 63 0a 05 bd 70 3a 05 bd 77 6b 05 bd 15 9e 05 bd
       -0.03248061 -0.032526433 -0.03257319 -0.032621462
0001b0 4d d2 05 bd 1d 08 06 bd 3d 3f 06 bd 09 78 06 bd
       -0.03267126 -0.03272258 -0.032775152 -0.03282932
0001c0 78 b2 06 bd 99 ed 06 bd c7 28 07 bd 0d 64 07 bd
       -0.032885045 -0.032941435 -0.032997873 -0.0330544
0001d0 3e 9e 07 bd 97 d7 07 bd 6e 10 08 bd 66 4b 08 bd
       -0.033109896 -0.033164587 -0.033218794 -0.03327503
0001e0 a2 87 08 bd 84 c4 08 bd ff 01 09 bd 1f 40 09 bd
       -0.033332475 -0.033390537 -0.03344917 -0.033508416
0001f0 92 7d 09 bd 05 bd 09 bd bb ff 09 bd 6a 45 0a bd
       -0.03356702 -0.03362753 -0.03369115 -0.033757605
000200 75 8d 0a bd 96 d8 0a bd 73 24 0b bd 22 70 0b bd
       -0.03382631 -0.03389796 -0.033970308 -0.034042485
000210 56 ba 0b bd a1 02 0c bd 73 49 0c bd de 8f 0c bd
       -0.03411325 -0.034182195 -0.034249734 -0.03431689
000220 26 d7 0c bd e5 1e 0d bd ec 63 0d bd 01 a5 0d bd
       -0.03438487 -0.03445329 -0.03451912 -0.034581188
000230 96 e4 0d bd 08 23 0e bd 9e 60 0e bd 5d 9e 0e bd
       -0.034641825 -0.034701377 -0.03476011 -0.034818996
000240 92 dc 0e bd c9 1a 0f bd 8e 58 0f bd 61 95 0f bd
       -0.03487832 -0.034937654 -0.03499656 -0.03505457
000250 77 cf 0f bd c0 05 10 bd 47 38 10 bd 6e 66 10 bd
       -0.035109963 -0.035161734 -0.03520992 -0.035253935
000260 30 8e 10 bd 93 ac 10 bd a7 c0 10 bd fa c8 10 bd
       -0.03529185 -0.03532083 -0.035339978 -0.035347916
000270 98 c6 10 bd 6e b9 10 bd c1 a0 10 bd 5c 7d 10 bd
       -0.035345644 -0.03533309 -0.035309557 -0.035275802
000280 fa 4e 10 bd 2c 16 10 bd 8e d3 0f bd 12 88 0f bd
       -0.035231568 -0.035177395 -0.035113864 -0.035041876
000290 c4 34 0f bd 8e db 0e bd 0b 7d 0e bd 84 1a 0e bd
       -0.03496243 -0.034877352 -0.03478722 -0.034693256
0002a0 c4 b5 0d bd 55 4e 0d bd e8 e3 0c bd 43 79 0c bd
       -0.034597173 -0.03449853 -0.034397036 -0.03429533
0002b0 3d 0e 0c bd 15 a4 0b bd 56 3c 0b bd 4b d7 0a bd
       -0.034193266 -0.034092028 -0.033993088 -0.033896726
0002c0 23 76 0a bd b0 1c 0a bd 42 cc 09 bd 3a 89 09 bd
       -0.03380407 -0.033718765 -0.03364206 -0.033578135
0002d0 62 53 09 bd 74 2a 09 bd e6 0e 09 bd d8 01 09 bd
       -0.033526786 -0.033487752 -0.033461474 -0.033449024
0002e0 7d 01 09 bd ff 0c 09 bd 91 21 09 bd 06 3d 09 bd
       -0.033448685 -0.03345966 -0.033479277 -0.033505462
0002f0 97 5d 09 bd 6b 82 09 bd b4 a9 09 bd e1 d2 09 bd
       -0.03353652 -0.033571642 -0.033609107 -0.033648375
000300 e1 f9 09 bd b8 1d 0a bd 5b 3e 0a bd 03 5b 0a bd
       -0.03368557 -0.03371975 -0.033750873 -0.0337782
000310 26 73 0a bd 02 88 0a bd fd 99 0a bd 0f aa 0a bd
       -0.03380122 -0.033821113 -0.03383826 -0.033853587
000320 39 94 07 bd de ca 07 bd 92 fc 07 bd ec 27 08 bd
       -0.03310034 -0.033152454 -0.033199854 -0.033241197
000330 d7 4d 08 bd 31 71 08 bd 4f 94 08 bd 00 b6 08 bd
       -0.03327736 -0.033311073 -0.033344563 -0.033376694
000340 7c d6 08 bd bb f5 08 bd 4a 14 09 bd 88 32 09 bd
       -0.033407673 -0.03343747 -0.033466615 -0.033495456
000350 3b 51 09 bd a5 71 09 bd fc 93 09 bd 7a ba 09 bd
       -0.033524733 -0.033555645 -0.033588395 -0.033625104
000360 59 e7 09 bd d2 1a 0a bd 74 52 0a bd c8 8c 0a bd
       -0.033667896 -0.033716984 -0.03377004 -0.033825666
000370 1c ca 0a bd 12 0a 0b bd 68 4e 0b bd 0a 96 0b bd
       -0.033884153 -0.03394515 -0.03401032 -0.034078635
000380 d2 e0 0b bd f8 2e 0c bd e6 80 0c bd fc d6 0c bd
       -0.034149952 -0.03422448 -0.034302615 -0.034384713
000390 51 2e 0d bd 47 85 0d bd a7 db 0d bd fc 31 0e bd
       -0.034468 -0.03455093 -0.034633305 -0.034715638
0003a0 b5 88 0e bd b2 df 0e bd 18 37 0f bd fe 8a 0f bd
       -0.034798343 -0.0348813 -0.03496465 -0.035044663
0003b0 7b d9 0f bd 86 21 10 bd 37 62 10 bd 3b 9b 10 bd
       -0.035119515 -0.03518822 -0.035249915 -0.03530429
0003c0 96 cc 10 bd 0f f6 10 bd 46 15 11 bd 27 2b 11 bd
       -0.03535136 -0.03539091 -0.03542068 -0.035441544
0003d0 f5 38 11 bd 97 3e 11 bd ca 3a 11 bd 72 2b 11 bd
       -0.03545471 -0.03546008 -0.035456456 -0.035441823
0003e0 e8 10 11 bd ac eb 10 bd d8 bb 10 bd a4 80 10 bd
       -0.035416514 -0.035381004 -0.03533539 -0.03527893
0003f0 6c 38 10 bd e0 df 0f bd 0b 7a 0f bd 81 0c 0f bd
       -0.035210058 -0.035125613 -0.0350285 -0.034924034

encoder.0.bias f4 [128]
000000 7b aa 84 bc db ed 28 bd 39 aa 11 bc 61 81 02 01
       -0.016194573 -0.04124246 -0.008890682 2.3970054e-38
000010 d7 93 8e bd ee 09 5b ba 04 20 99 80 26 80 74 9a
       -0.06961792 -0.00083556667 -1.4062316e-38 -5.0561535e-23
000020 60 bc 90 3c b4 b9 9f 3d e9 47 b5 01 58 4d 86 3c
       0.01766795 0.07799092 6.6592085e-38 0.016394302
000030 db e0 42 3d 04 3a 0e 3d b1 46 0b 34 c3 d1 67 bd
       0.04757772 0.034723297 1.2971101e-07 -0.05659653
000040 64 a5 98 80 00 4d 8d bd 4d bf 14 3d 6e 93 b4 bc
       -1.4018326e-38 -0.06899452 0.03631525 -0.022042956
000050 eb cf ee bc 04 6f ab 3d 12 c4 63 bd 9c 5d f5 bd
       -0.029151877 0.08370784 -0.05560691 -0.11980745
000060 bb f5 b4 bd 85 d6 1b b7 cf 7f 00 ba 36 c8 5f bb
       -0.08835932 -9.288667e-06 -0.00049018575 -0.0034146435
000070 50 4b ac 3c 6d 4c de 00 49 d9 68 81 33 7c 75 3c
       0.021032006 2.0414897e-38 -4.2767565e-38 0.014983225
000080 27 92 a9 8d 94 55 b3 00 9e 9c 7e b5 ae 54 96 bd
       -1.0450614e-30 1.6469253e-38 -9.485028e-07 -0.0734037
000090 5a a3 e0 80 be 24 c9 b9 c2 58 05 81 dd ce d9 3a
       -2.062975e-38 -0.00038365083 -2.4491923e-38 0.0016617436
0000a0 b5 99 9c 3d 98 0b 3b 00 1f fd 62 bc 71 ff 7f 3d
       0.07646505 5.422453e-39 -0.013854294 0.062499467
0000b0 e5 c7 5f bc 3e 48 ca 80 f3 08 2d bd 32 45 30 81
       -0.013658498 -1.8576686e-38 -0.042244863 -3.237574e-38
0000c0 20 f2 da 80 5c 18 90 3c 36 e2 f0 3c 51 3c 07 81
       -2.0106996e-38 0.01758974 0.02940474 -2.483886e-38
0000d0 d6 7c a7 80 6e 10 6d b8 fe 73 ed 9b ed 49 0b bd
       -1.538131e-38 -5.6520505e-05 -3.928332e-22 -0.034006048
0000e0 3d 43 fe ae 6e 23 23 a2 d8 07 da 3c df 20 19 ba
       -1.15625266e-10 -2.2109376e-18 0.026615068 -0.0005841385
0000f0 24 42 10 80 cc a7 11 3d 5a ef 23 3d bd 30 85 bd
       -1.493095e-39 0.035560414 0.040023185 -0.06503437
000100 f4 77 cd ba a9 e0 df 00 fb 4e 1a 3d 40 4c 9c 3d
       -0.0015676008 2.0559909e-38 0.037672978 0.07631731
000110 77 7f 6d 80 1e d1 0a 3d 95 0f 1f bc 22 34 80 3d
       -1.0055795e-38 0.033890836 -0.009708305 0.062599435
000120 62 ef c5 bb 5d dc c4 bb 91 95 8b 00 1d 70 56 13
       -0.0060404995 -0.0060077147 1.2818788e-38 2.7065874e-27
000130 d6 b8 cc 80 d4 49 85 bc ed 6d 98 00 ec 39 cc b5
       -1.8800748e-38 -0.016270556 1.399843e-38 -1.5216042e-06
000140 e0 81 c3 80 1f aa b1 3d fe 9b a7 00 4c 13 b5 9c
       -1.7954512e-38 0.08675026 1.5392487e-38 -1.1982563e-21
000150 6e 10 e1 bb 16 c9 da bc 1d ae 63 3b 23 89 59 3c
       -0.0068684136 -0.026707213 0.003474123 0.013277325
000160 54 80 02 bb 4e 25 3e 80 f8 ff 5e 00 c8 e0 3b bd
       -0.0019912915 -5.707183e-39 8.724361e-39 -0.045868665
000170 b8 37 19 0a d2 20 a3 ba 46 72 c4 3c aa e7 4a 3c
       7.3771616e-33 -0.0012445694 0.023980271 0.012384335
000180 2f 7a 95 bc 27 18 87 bb 66 6b d6 bc 83 81 a1 81
       -0.018246738 -0.004122752 -0.026174258 -5.93279e-38
000190 4c 4d ab 97 03 9d f1 bc fa 36 4b a7 f8 35 a8 a4
       -1.1070128e-24 -0.029493814 -2.8201712e-15 -7.294981e-17
0001a0 19 1b be 81 e0 dd 94 00 1b a5 bf 80 b0 b6 d0 aa
       -6.983386e-38 1.3671247e-38 -1.7599808e-38 -3.7074987e-13
0001b0 ca 0a b0 bc 5b da 93 bd 4f 94 07 bd 37 e2 ee bc
       -0.02148952 -0.072193824 -0.033100422 -0.029160602
0001c0 90 c1 f0 bc f4 9b 05 01 d2 69 46 81 20 f1 e6 bc
       -0.029389173 2.4540133e-38 -3.644278e-38 -0.02819115
0001d0 99 e7 90 bd 29 56 ea 80 13 be ef b9 13 d4 12 bd
       -0.07075424 -2.1520415e-38 -0.0004572725 -0.03584678
0001e0 4a cb c5 bd ef f3 87 80 f9 40 62 bd d5 5e 01 81
       -0.09657915 -1.2485299e-38 -0.055237744 -2.3761597e-38
0001f0 39 0b 7d 00 52 fd 20 3d d4 86 95 3d 13 8d 53 bc
       1.1483463e-38 0.039304085 0.07301107 -0.012912053

encoder.2.weight f4 [32, 128]
000000 8f 4a c9 3c 8b 62 33 be 62 4d 16 bd ff 18 ce 95
       0.024571685 -0.1751806 -0.03669489 -8.3242174e-26
000010 2c b6 e5 3c 32 95 78 3b a2 a2 f6 b5 b4 81 b2 3b
       0.028040968 0.0037930724 -1.8375761e-06 0.0054475907
000020 49 bf f3 3c 7a 14 59 be 7c 09 4e 80 c4 6c 8d bd
       0.029754298 -0.21199217 -7.166571e-39 -0.06905511
000030 c8 51 75 3c 46 0d 2b 3d 7b f5 09 b3 aa 35 ee bc
       0.014973111 0.041760705 -3.212106e-08 -0.029078323
000040 41 46 86 bb bd c6 c3 bc d9 f3 c7 bd d0 21 3b bd
       -0.0040977304 -0.023898477 -0.09763307 -0.045686543
000050 ef 88 ec 3c eb e0 0c be 15 6f 84 3d 2a d3 98 3d
       0.028873889 -0.13757674 0.064665 0.07462151
000060 65 01 14 3d 91 65 b3 bc af 7d c6 3d e1 4c 55 bd
       0.036134142 -0.021899017 0.09691941 -0.05207527
000070 1d 56 92 bd b2 5b 4c 01 c5 7e a2 ae 11 a1 56 3d
       -0.07145331 3.753467e-38 -7.389426e-11 0.0523997
000080 09 f2 34 04 e4 66 00 94 8d b2 f4 3b 65 66 a7 3d
       2.1270035e-36 -6.48264e-27 0.007467574 0.08173827
000090 48 a1 c6 00 63 38 1f bd 56 28 97 04 84 11 3e 3d
       1.8241285e-38 -0.038872134 3.5536972e-36 0.046403423
0000a0 35 22 01 bd 7c bd d8 a1 36 ba 13 3d ce 25 6b 3c
       -0.031526763 -1.4686885e-18 0.036066256 0.014352275
0000b0 5f 0c 13 bd 76 fd e6 b8 3f 96 45 3d d6 53 2b bc
       -0.03590047 -0.000110144654 0.04823899 -0.010457
0000c0 8b 5c a2 24 e4 9b ce 3d ff 4b 00 3e 03 9e 53 b1
       7.0413075e-17 0.100883275 0.1252899 -3.079436e-09
0000d0 3c da a2 a2 f4 cd 93 bc b8 f1 0c a8 4b 0c 9a bd
       -4.4141253e-18 -0.018042542 -7.8239756e-15 -0.07521876
0000e0 05 16 07 3d 74 04 38 39 7b ee 1f bd a9 d7 f3 3c
       0.032979984 0.00017549266 -0.039045792 0.02976592
0000f0 3b 0b a0 b9 86 58 e2 bd ca 5a a4 bd 0e b1 96 3d
       -0.00030525945 -0.11052041 -0.08025129 0.07357989
000100 8d 5b 01 36 6d 13 ae a0 6e ff 04 3e 7d 1b 15 bd
       1.9275788e-06 -2.9489601e-19 0.12988064 -0.036403168
000110 e4 c3 db a2 7b a8 3c 3d c5 13 0b be 36 c6 af 3c
       -5.9567476e-18 0.046059113 -0.1358176 0.021456819
000120 36 2c e8 3c e1 90 98 bd 40 b7 e6 1b 65 c5 cb 9f
       0.028341394 -0.074495085 3.816873e-22 -8.6300406e-20
000130 17 04 e5 9c b6 6c 2d 3e 39 33 00 80 31 49 3b 34
       -1.5155006e-21 0.16936001 -1.8375e-41 1.7442359e-07
000140 1d 2d 44 00 68 3f 37 bd d8 80 8d 2b 17 d9 de bc
       6.260997e-39 -0.044738203 1.0054414e-12 -0.027203126
000150 7b ce 7d 39 6b 21 73 bc 4c fe d8 bd 65 dd 82 3c
       0.0002420488 -0.01483951 -0.10595378 0.01597471
000160 ec 61 25 3d 17 8c 93 81 69 8a bc 26 d0 75 2e bd
       0.04037659 -5.420029e-38 1.3082637e-15 -0.042592824
000170 df 31 6e 2d 9b 53 0e be f8 e3 08 bd e7 11 68 3c
       1.3539807e-11 -0.1389908 -0.033420533 0.0141644245
000180 cb 07 a2 3b 59 5f 17 3d 93 f5 1d bd 78 84 26 1a
       0.0049447767 0.036956165 -0.038564276 3.4435003e-23
000190 35 cf 95 17 86 7d 47 3d 35 88 63 bb ac c6 ce 3c
       9.681206e-25 0.048703693 -0.0034718637 0.025241219
0001a0 8c df 9f bb 0b de 73 00 ea 9c 32 99 73 45 95 3c
       -0.004878944 1.0640736e-38 -9.234073e-24 0.018221593
0001b0 fb ff 01 3e e5 a3 95 bd 2e 7a 6c 3c cb 5d 8b bd
       0.12695305 -0.07306651 0.014433427 -0.06804999
0001c0 2d 6e b6 bd 76 85 7e 36 fe 71 03 9a ed a7 48 bd
       -0.08907733 3.7926634e-06 -2.7182247e-23 -0.04898827
0001d0 68 8a c3 3b 38 9f db bc a9 68 d1 3c 3a 3f af 3d
       0.005967427 -0.02680932 0.025562601 0.085569814
0001e0 1a ee 03 3e c2 81 71 00 6f e7 91 bd 43 f1 2c 0f
       0.12883797 1.042396e-38 -0.071242206 8.52672e-30
0001f0 23 3a 85 90 db 8b ed 3b cd de 83 3d d8 a1 c5 bc
       -5.2548824e-29 0.007249338 0.0643898 -0.024125025
000200 9a 4d 27 bd 6c ca 4f 3d d2 23 97 3c fe fb 02 b8
       -0.04084549 0.050730154 0.018449698 -3.12291e-05
000210 9a b1 c5 3d 3a 27 23 3c 80 d5 ac 36 3f 1e 59 3b
       0.096530154 0.009958083 5.150854e-06 0.00331296
000220 c4 bb e5 3d 0a e3 96 bd 44 7f 02 00 71 a6 c0 bd
       0.11217454 -0.07367523 2.29325e-40 -0.09406746
000230 d9 79 ec bc fd 02 82 3d ef 55 6c b3 ec d9 3b 3d
       -0.028866695 0.06348226 -5.5026188e-08 0.045862123
000240 44 e6 75 3b 10 bb f0 bd a6 97 87 bd fb 35 38 ba
       0.0037521282 -0.11754429 -0.066207215 -0.00070270867
000250 88 9e 54 3d 8a 0f 90 3d d4 45 06 3c d3 fb 56 bd
       0.051909 0.07034214 0.008195359 -0.052486252
000260 fa 26 4f bd 24 18 9c 3c 4e 69 0f bd 92 95 60 3b
       -0.05057428 0.01905448 -0.035012536 0.0034268838
000270 64 37 19 bc 6e 7f 04 81 a0 62 32 23 a0 a6 03 3d
       -0.009351585 -2.4335997e-38 9.670284e-18 0.032141328
000280 ef 8f 69 04 c4 d2 5b 03 ae a9 31 bb 9d 46 bb bc
       2.745511e-36 6.4600263e-37 -0.0027109194 -0.02286082
000290 53 b5 a7 97 80 81 32 bd 1f 94 55 bc dd 38 51 3e
       -1.0837895e-24 -0.043580532 -0.013035803 0.20431848
0002a0 3a c1 2b 3d 92 00 c1 2c bd 1e 10 bd 75 71 66 bc
       0.041932322 5.4854532e-12 -0.035185564 -0.014065136
0002b0 c1 5c 94 bc f3 47 1d 36 17 5b ed bc 56 a4 a8 3c
       -0.018110635 2.3436703e-06 -0.0289741 0.020586174
0002c0 18 ef 3b 80 4b 9c 3b 3d 3e d0 a4 bd 28 e7 20 37
       -5.504065e-39 0.04580335 -0.080475315 9.590563e-06
0002d0 af 77 97 a0 2a c5 6b bc 42 9e 7b b5 9f e4 0b 3c
       -2.5659595e-19 -0.014390269 -9.373508e-07 0.008538394
0002e0 e5 2d 77 bc 8c 9d 15 3b 58 1f 18 bd f0 15 fa 3c
       -0.015086626 0.00228295 -0.037139267 0.030528039
0002f0 ba 98 b8 3a 75 2d bd 3d f3 87 36 3d 74 42 76 bd
       0.0014083602 0.09237186 0.044563245 -0.06012197
000300 2d 4c d8 b5 c8 8c dc 28 4a 46 7b 3d de d2 9c 3c
       -1.6115424e-06 2.448596e-14 0.06134633 0.019143518
000310 d1 6f b4 9d b4 c5 68 3d 29 e0 43 3d 84 63 a8 bc
       -4.776122e-21 0.05682917 0.047821198 -0.020555265
000320 b1 0f 2a bc 77 65 3f bd f9 57 eb 32 34 44 b5 0d
       -0.010379718 -0.046727624 2.7397606e-08 1.1171406e-30
000330 43 cc 52 00 51 cb 6f 3d 27 fa 15 80 a0 cd a0 b5
       7.603786e-39 0.058543507 -2.018283e-39 -1.1980774e-06
000340 d3 5c 3c 80 c6 cf c6 3d 98 29 b1 20 f6 a5 d9 3c
       -5.543429e-39 0.097075984 3.001249e-19 0.026568394
000350 ec d5 15 3d 12 7f 8e bd a4 17 d0 bd 60 0d 01 3d
       0.036580965 -0.069578305 -0.10160759 0.031506896
000360 12 c5 db 3c b6 f0 04 01 85 85 35 22 e4 47 c2 bd
       0.026827369 2.4417273e-38 2.4600759e-18 -0.09486368
000370 e7 a5 ca 08 1e 21 14 3d c7 69 38 3d f8 05 fb bc
       1.2196436e-33 0.036164396 0.045022752 -0.030642495
000380 4b 0c 67 3c 63 de b6 3c 32 fd 07 3d b4 d4 26 80
       0.014102052 0.02232284 0.03320045 -3.566052e-39
000390 97 8d c5 17 98 03 e0 bd 96 de cc 3b f4 05 97 bc
       1.2766569e-24 -0.109381855 0.0062521202 -0.018435456
0003a0 32 00 a4 3c 60 2e ef 80 63 61 6f 8a 63 11 fe bc
       0.020019624 -2.196532e-38 -1.1525748e-32 -0.03101415
0003b0 3d 58 07 bc 2b 00 a7 3d b2 a1 ed 3d 82 68 13 3d
       -0.008260784 0.08154329 0.116031066 0.03598834
0003c0 ee 20 71 bd 6a 21 4c b7 c0 29 ce 32 ab 9d 5d 3c
       -0.058869295 -1.2167127e-05 2.4000542e-08 0.0135263605
0003d0 8b 8c 72 3d 34 b7 a6 bc 4c d0 d3 3c ae ba ee bd
       0.059216063 -0.02035103 0.02585616 -0.116567
0003e0 a6 03 7e 3c a6 d4 fa 00 40 26 6b 3d c0 31 43 80
       0.0155038 2.3035158e-38 0.057409525 -6.170825e-39
0003f0 54 ce 0b 00 60 b1 25 3c 53 6e 85 3d 79 05 3f bd
       1.084207e-39 0.01011309 0.06515183 -0.04663608

encoder.2.bias f4 [32]
000000 e6 0a e0 bd 7a 45 07 3a a6 f4 41 3d 79 f3 ad bb
       -0.10939579 0.0005160194 0.047352456 -0.005308565
000010 0c 12 7a 3d d9 28 9c bc 13 12 d6 3c 6f 70 01 3d
       0.061052367 -0.019062446 0.026131665 0.031601366
000020 8b b4 66 3d 20 65 3d 3d f4 38 8e bd b6 71 f5 3a
       0.056324523 0.04623902 -0.06944457 0.0018725905
000030 17 f5 f3 3c b2 9a 82 bc 62 cc c6 bd 71 f0 a5 bc
       0.029779954 -0.015942905 -0.09706952 -0.020256253
000040 e1 f6 45 3d ed 5f 2e bd 6a 39 a9 3c 8d 8c a0 bd
       0.048331145 -0.04257195 0.02065726 -0.07839308
000050 87 bd 19 bd 90 8f 8b 3d 34 45 47 3c f5 d6 18 3d
       -0.037534263 0.06814492 0.012162495 0.037314374
000060 31 e5 e0 bd f7 da 5a 3c d4 11 42 bd 42 9c 3e bd
       -0.10981215 0.013357869 -0.047380283 -0.046535738
000070 e7 4c 0d 3d 8d f0 17 be 17 0e a5 3d fb 28 1d 3d
       0.034497168 -0.14837857 0.08059328 0.03836916

decoder.0.weight f4 [128, 32]
000000 35 68 8b 3d 18 a1 d4 3c 00 6a 27 bd d4 54 af 3c
       0.06806985 0.025955722 -0.040872574 0.021402754
000010 4e f1 c8 3b f8 5e d2 bd b0 fa b6 3d 93 50 17 bd
       0.0061322814 -0.1027202 0.089345336 -0.036942076
000020 4d 9e fd bd b2 0d 43 3c 9b dc ef 3c 98 28 d4 bd
       -0.12383709 0.011905121 0.029279998 -0.10359305
000030 65 df 27 3e d1 b3 40 be 3b bc 42 3d ea 67 09 be
       0.16393812 -0.18818595 0.04754279 -0.13418546
000040 d7 67 6f 3d ca c5 cd 3d c6 8f 09 be f1 c7 c6 3b
       0.05844864 0.10047491 -0.13433751 0.0060663153
000050 6a 3b b6 bb 1c e6 1e 3e 1e 98 99 bc 1e f3 91 3b
       -0.005561282 0.15517467 -0.018749293 0.0044540307
000060 6a 9b 86 3d bd 54 78 bd af c2 ca bd c3 71 77 3d
       0.06572612 -0.060627688 -0.09900414 0.060411226
000070 a2 46 95 bc 0a a4 73 bc ad 07 55 3d ea 29 0e 3d
       -0.018222157 -0.014870653 0.052009273 0.03470794
000080 3f 67 21 bd 0b f0 e0 3c 4f f9 48 3d 13 a9 9b bc
       -0.039405104 0.027458211 0.049065884 -0.01900152
000090 65 fd fe 3c ec 51 08 bd 04 db 17 3c 3b 0d 3c 3d
       0.031126687 -0.03328125 0.009268526 0.045911055
0000a0 09 52 39 3d 2c 76 3e 3d 3b a9 c7 3b 90 d9 26 bc
       0.04524425 0.046499416 0.006093172 -0.010183707
0000b0 55 31 f8 3c ab 58 37 bd f4 ab bb 3c fd b5 40 3d
       0.03029696 -0.044762295 0.022909142 0.047048558
0000c0 29 11 35 3d b0 e1 c7 3c c3 b9 26 3d 1f 38 48 bd
       0.04420582 0.024399608 0.0407045 -0.048881646
0000d0 87 f2 3c bc 9a ef 8a 3c 13 61 3a bb 89 9c d2 3c
       -0.011532432 0.016959954 -0.0028439208 0.025709407
0000e0 e2 b6 35 bd d9 92 fb bb c7 7e 37 3d 37 4c 1c 3d
       -0.044363864 -0.0076774177 0.04479864 0.03815862
0000f0 ec 6d 49 3d 29 0f 06 3c 14 82 37 3d a6 1d 76 3c
       0.049177095 0.008182325 0.044801787 0.015021717
000100 06 40 3a 3e bb 4d 3a 3d 6e 1e eb 3d 61 30 61 3d
       0.18188486 0.045484286 0.114804134 0.05497778
000110 a3 e8 74 bc 3a 7e f1 bd e5 08 89 3d e6 12 08 be
       -0.014948043 -0.11791654 0.066911496 -0.13288459
000120 b3 a9 20 be 99 da fb bb c9 84 8d bd 3d db 98 bd
       -0.15689735 -0.007685971 -0.069100924 -0.074636914
000130 05 2c 04 be 48 b3 ce bd a6 de 02 3e 00 b2 83 3c
       -0.12907417 -0.10092789 0.12780246 0.016076088
000140 d5 4a f1 bd 93 cc 21 3c 53 9d fb bd 01 6d bc bd
       -0.11781851 0.009875434 -0.122858666 -0.09200478
000150 d6 88 51 bd b1 30 d5 3d c7 fd 76 bd 46 a5 0c 3d
       -0.051155888 0.10409678 -0.060300615 0.034337305
000160 c1 ed 0b 3e f7 a0 07 be 67 67 70 bc 2d a0 49 bd
       0.13664915 -0.13244997 -0.014673091 -0.04922502
000170 5c 8d 6c bc 88 7c 1d 3e 57 70 39 be 97 e0 e3 3d
       -0.014438 0.15379536 -0.1810926 0.111268215
000180 47 6a c1 3b 76 67 30 3d 24 6c 49 be fc bb 2c bc
       0.005902562 0.043067418 -0.19670159 -0.010542866
000190 7c 55 ff bd 3c 6f 33 3c 03 7c 34 3d 2f d3 0f be
       -0.12467477 0.010951813 0.04406358 -0.14045404
0001a0 c5 6b 8e bc ec 89 44 be 89 de 35 bc 3c d2 a6 bd
       -0.017385373 -0.19193238 -0.01110042 -0.08145568
0001b0 75 7d 4d bd f3 ea d4 3c 11 b3 9e 3d 15 17 02 3e
       -0.050168473 0.025990939 0.07748998 0.12704118
0001c0 b9 e4 fa 3c b1 ed 4a bd fa 7b c3 3d aa b2 51 3d
       0.030626642 -0.049543086 0.09545131 0.051195778
0001d0 28 e0 8f bc 68 07 1c be 2a 62 0e 3e d8 b9 71 bd
       -0.01756294 -0.152372 0.13904634 -0.059015125
0001e0 af 81 04 be 6d 4d 16 be bc 4e 1a 3c 6f b9 24 3e
       -0.12940095 -0.14677973 0.009418186 0.16086362
0001f0 97 09 86 3d 7e bb 8e 3c 9d d4 c2 3d af e1 28 bd
       0.06544798 0.017423388 0.09513209 -0.041230854
000200 ab ba 29 be c7 46 3b bd d9 37 b7 bc 97 b3 26 bd
       -0.16575114 -0.045721795 -0.022365497 -0.040698614
000210 1c 37 1c 3c 5e d6 30 be 3e 40 43 bb 45 ac 9c 3d
       0.0095346235 -0.17269275 -0.002979293 0.07650045
000220 98 74 40 3e d0 b1 1a 3c d3 31 b3 bd 6f 94 89 3d
       0.18794477 0.009441808 -0.087497376 0.067177646
000230 88 32 a4 bd 57 2c b5 3d da 3d ba 3d ae 84 0b be
       -0.080174506 0.08846348 0.090938285 -0.13624832
000240 16 5c ca bd 06 8b 46 3e d7 68 fb 3c 98 37 b6 3c
       -0.09880845 0.1938897 0.03068964 0.022243306
000250 e0 50 6f bd 82 3a ed 3c 62 7f da 3d a4 02 e1 3d
       -0.058426738 0.028958563 0.106688276 0.10986832
000260 28 e5 09 3e 5e 76 36 3d 2f 69 bb bd 2e 38 51 be
       0.13466322 0.044546477 -0.091509216 -0.20431587
000270 02 89 0d be 31 6f 1a 3d 03 12 50 bd 29 9f 06 3e
       -0.13821796 0.037703697 -0.050798427 0.13146652
000280 bc b8 df bc d0 b2 3d 3c 78 7c 22 3d 40 0a 65 ba
       -0.027309768 0.011578277 0.039669484 -0.0008737184
000290 bd 3f aa 3a 65 46 bd bc 28 67 18 b9 c4 27 02 3d
       0.0012988966 -0.023104856 -0.00014534278 0.031776205
0002a0 9e 5d e7 3c b5 fa 1c 3d 01 f1 2d 3b 2b 95 77 3b
       0.028242882 0.03832503 0.0026541355 0.003777812
0002b0 1a 6e 64 3c 25 0c 0e bd c7 84 83 3c ce 3c 1b 3d
       0.013942266 -0.03467955 0.016054524 0.037899785
0002c0 eb d8 0c 3d a1 9f 56 3b 67 3e a8 3c 06 7b 10 bd
       0.034386557 0.0032748955 0.020537568 -0.035273574
0002d0 1b 01 4d 3a ac 0a 33 3c 2d 20 fd ba a1 cf f5 3a
       0.0007820294 0.010927837 -0.0019311957 0.0018753895
0002e0 73 a5 16 bd d8 0b 18 3c 67 3b 8e 3c 07 68 f0 3b
       -0.03677888 0.0092801675 0.01736231 0.00733662
0002f0 a4 32 09 3d ce 2d db 3b 57 33 1c 3d 41 17 48 3a
       0.03349556 0.00668881 0.0381349 0.00076328596
000300 85 d0 9c 80 ab ef 0b 00 c5 62 f2 35 4b b7 4f 1e
       -1.440114e-38 1.096167e-39 1.8059151e-06 1.0996393e-20
000310 66 28 2b 80 84 50 2b ad 6f 0f aa 80 83 9f c3 30
       -3.963419e-39 -9.738103e-12 -1.5617571e-38 1.4233453e-09
000320 4e 35 c9 2c f9 d3 b8 34 06 9b b4 80 8b a6 86 00
       5.7186816e-12 3.44269e-07 -1.6586001e-38 1.2365701e-38
000330 17 c5 9d 2e de ed 7e af 92 cd 56 80 b3 89 29 33
       7.1745436e-11 -2.3185673e-10 -7.971597e-39 3.9473615e-08
000340 4e ff 31 29 42 f7 e2 00 14 33 4c 2c ce ee 10 a8
       3.9523337e-14 2.0843522e-38 2.9018498e-12 -8.045388e-15
000350 95 d0 ae a4 2b b8 cf 12 a0 2e 1d 13 a5 5f f4 a4
       -7.581382e-17 1.31089375e-27 1.9839174e-27 -1.0598016e-16
000360 3c 66 c5 ad a9 2d 78 00 78 3b 81 ae b0 77 20 a3
       -2.2441708e-11 1.103664e-38 -5.8768046e-11 -8.698962e-18
000370 75 3c 2c b2 47 0a 6a 80 33 45 83 33 25 d2 15 00
       -1.0025464e-08 -9.73825e-39 6.11275e-08 2.003931e-39
000380 9c b1 93 a2 e2 ae bc 2c 1b bd 3e 32 2f 22 89 9d
       -4.003248e-18 5.3626973e-12 1.1102453e-08 -3.6298943e-21
000390 fb 10 cf 80 90 57 30 9c fb c1 1b 00 03 4a b5 1f
       -1.9016039e-38 -5.8346687e-22 2.549145e-39 7.6778924e-20
0003a0 2a c2 7d 17 aa 6a 81 31 1f 35 87 00 c4 13 08 97
       8.199378e-25 3.7665204e-09 1.2416848e-38 -4.396892e-25
0003b0 ad 33 92 80 e5 f2 1b a7 7c a7 8b aa 29 d2 ea 30
       -1.342652e-38 -2.1642244e-15 -2.4807576e-13 1.7085472e-09
0003c0 dc dc da 2b 12 60 55 aa 35 7a 2f 1d f6 71 5b a5
       1.5551132e-12 -1.8951531e-13 2.3224237e-21 -1.9033834e-16
0003d0 37 78 eb 9d 3b 34 89 1c 14 ee ab 83 fd 90 42 15
       -6.232828e-21 9.079401e-22 -1.0105137e-36 3.9292364e-26
0003e0 17 f3 b9 ab 16 fe 4c ac 51 2a 18 1f 77 98 c4 23
       -1.3212512e-12 -2.913119e-12 3.2222255e-20 2.1314934e-17
0003f0 45 8b 13 25 78 36 23 22 d9 8f 2d 30 e7 fe d6 29
       1.2797404e-16 2.2119455e-18 6.3141453e-10 9.5477276e-14

decoder.0.bias f4 [128]
000000 1a bd f4 bc cb 43 83 bc 5c 15 11 3e f1 32 3e 3e
       -0.029875327 -0.016023537 0.14168304 0.1857412
000010 d6 e9 d6 3d ba a0 67 ba 3f 4a 1e 00 da 57 1a 00
       0.104938194 -0.0008835901 2.7817e-39 2.419238e-39
000020 f6 4c 43 a7 43 52 dd bd 61 88 d0 bd 9f 19 9c 3d
       -2.7103407e-15 -0.10806706 -0.10182262 0.07622074
000030 7f 84 da bd d9 d4 e7 bc 7a 61 0a ae 1c a4 d2 95
       -0.10669803 -0.028299736 -3.1464144e-11 -8.5077243e-26
000040 77 d3 8b be 99 52 77 ba f7 ad c8 3c 3b fc 84 bd
       -0.27309772 -0.000943461 0.024497015 -0.06493422
000050 6e a2 da bc f8 cd 89 3d c4 58 a5 3c d7 73 a6 3c
       -0.02668878 0.067287385 0.020183928 0.020318909
000060 4c 01 93 bc fa d4 b9 bd b6 be f2 bd 07 9e 73 00
       -0.017944954 -0.09073825 -0.118527815 1.0617772e-38
000070 6a 60 e4 3c 90 7a 85 bd 99 66 01 bd 82 1c 6b bd
       0.027878005 -0.065175176 -0.031591985 -0.057400234
000080 74 a1 9b 3d 8d bc a8 3d a0 19 24 80 3e f9 6f bc
       0.07599154 0.08239088 -3.31527e-39 -0.014646826
000090 39 4b 28 bc b3 71 a3 bc a8 71 f1 bd 91 57 6e 3d
       -0.010271841 -0.019951677 -0.11789256 0.05818898
0000a0 3c 10 2b 3d 63 ec 39 3d 12 3f d9 3d f2 e9 21 3e
       0.04176353 0.04539145 0.10607733 0.158119
0000b0 69 aa d9 bb 24 c4 79 be 57 61 f9 3d 20 5f 42 bd
       -0.006642629 -0.24391228 0.12176769 -0.047454
0000c0 f9 9d e2 bd 11 4d 3e 3d e8 9a 23 80 f9 69 1f bc
       -0.11065287 0.046460215 -3.269812e-39 -0.009729856
0000d0 0c 10 57 3e 7d 1b bb 26 94 0f a4 b5 97 df 46 3c
       0.21002215 1.2983182e-15 -1.2223486e-06 0.012138269
0000e0 27 47 d5 bd 97 e5 68 3c c2 2a f5 3d c3 f0 87 3c
       -0.10413962 0.014214895 0.11971046 0.016594296
0000f0 f1 60 88 3d fc 10 3c 81 f8 60 1e 3e 06 6e 9c 3d
       0.06659115 -3.4542332e-38 0.15466678 0.07638173
000100 64 68 33 3d 24 6f a9 b7 b9 ac 93 bb 5a a8 c2 3d
       0.043800727 -2.0198124e-05 -0.004506674 0.09504767
000110 aa 7f 99 bd 80 f1 c1 3c e5 18 04 bd 84 7f c5 bd
       -0.07495053 0.023674726 -0.032250304 -0.09643462
000120 fe ba 5e be 93 fb 1b 3c 28 75 cf 3d ec 6e 87 bd
       -0.2175102 0.009520429 0.10129768 -0.066129535
000130 99 f8 cf 3d 58 3c a1 bd 94 55 22 be 1e d5 13 bd
       0.10154838 -0.07872838 -0.15852958 -0.036091916
000140 bc 67 e5 bd 32 1a 1a 01 5c 72 eb bd c9 c4 fb 3d
       -0.112014264 2.8304127e-38 -0.11496422 0.12293393
000150 26 26 cf bc 3d 1f 09 bd 45 8d f7 3d 59 e8 69 bd
       -0.025286745 -0.033477057 0.12087492 -0.05710635
000160 06 6d cc bc 3d c1 67 3d 28 88 0f 3d e5 75 0b 3c
       -0.02495433 0.05658077 0.035041958 0.008511995
000170 62 ee 17 3d 0e b1 fa 3d 5e 51 44 bc 45 be 75 3d
       0.037092574 0.12240802 -0.01198229 0.05999591
000180 fc e3 b4 3d 91 59 94 3d 00 ec 62 01 53 ed ba bd
       0.08832547 0.07243646 4.1678966e-38 -0.09127297
000190 f7 07 12 3e 52 98 ff bd b2 fb 3b bd 74 ae b3 3d
       0.14260851 -0.12480225 -0.045894332 0.08773509
0001a0 56 d5 0a bd 90 96 f7 3d 9a 45 ab bd 6b 33 0d ba
       -0.03389486 0.120892644 -0.08362885 -0.0005386385
0001b0 0b 80 89 3c da e6 cc 3d 75 da b3 3d eb 0a 6b bd
       0.016784688 0.10004969 0.08781902 -0.05738346
0001c0 84 68 9d 3c 30 72 13 80 11 f8 7f bd d9 83 fe 3d
       0.019214876 -1.785837e-39 -0.062492434 0.12427492
0001d0 29 0a df bd f6 4a d4 ba 08 a0 4d b0 87 91 e9 ac
       -0.1089061 -0.0016196657 -7.4805984e-10 -6.638415e-12
0001e0 24 45 a6 bc e5 ab 83 bd ea f8 30 81 4d 9b ae 3c
       -0.02029664 -0.06429271 -3.2504682e-38 0.021314288
0001f0 eb 77 53 3d 1d e6 11 b4 1f 32 01 be ba f2 81 bc
       0.051628035 -1.3587892e-07 -0.12616776 -0.015862811

decoder.2.weight f4 [600, 128]
000000 64 5d 6f 3d ac e4 95 3c 9e 28 5d 3d 13 65 f3 3c
       0.058438674 0.018297516 0.053993814 0.029711282
000010 2d 03 3d bd ca 40 64 3b ae 93 73 80 ac 36 22 01
       -0.046145607 0.0034828656 -1.061406e-38 2.9793926e-38
000020 40 36 1c 2f fd a5 65 3d ce ab 28 3c 8d 02 08 bb
       1.4207391e-10 0.056066502 0.010294868 -0.0020753474
000030 90 3f 7a 3b c3 7b 6e 3d 19 55 29 b6 45 5c 67 0c
       0.003818486 0.058223497 -2.5232496e-06 1.7823359e-31
000040 8b 7f 3a bd 80 19 b9 bb 70 f8 4a 3c c5 01 e6 3c
       -0.04553179 -0.005648792 0.012388334 0.028077016
000050 33 f2 35 bc 0c b3 87 3d 1e d3 be b9 7a cb 3e bb
       -0.011105108 0.06625947 -0.0003639692 -0.002911298
000060 04 a2 fb bc 55 31 b2 bd 26 a5 3f 3d 2c 65 92 80
       -0.030716904 -0.087008156 0.046788357 -1.3444276e-38
000070 ca d3 93 bc 84 0c 1e bd 2e b9 2b bd a6 37 c7 bd
       -0.018045325 -0.038586155 -0.041924648 -0.09727411
000080 df 38 13 be ee 4c 29 bd 64 52 65 01 a1 77 03 3d
       -0.14377163 -0.04133313 4.211977e-38 0.03209651
000090 f9 93 4f bc 6e a2 86 3d 77 08 c6 bc b9 04 37 bb
       -0.012669557 0.0657395 -0.024173958 -0.00279264
0000a0 ec 7b 89 bd 47 b0 a3 bd 85 e1 94 3d 86 24 ab bc
       -0.06713089 -0.079926066 0.07269577 -0.02089144
0000b0 65 df 76 3b 80 b9 c6 ba 55 24 59 3c e4 65 c0 bd
       0.0037669775 -0.0015161484 0.013253291 -0.09394434
0000c0 a7 5e 8b 3c 8f 62 79 3c ab 61 98 01 ec 40 69 bd
       0.017012907 0.015221252 5.597613e-38 -0.05694668
0000d0 12 d9 e7 3c 88 11 21 81 35 dc eb b8 69 33 cf bd
       0.02830175 -2.9583608e-38 -0.0001124669 -0.101172276
0000e0 3f a6 b4 3d 7b 6d 1b bd e5 3d 86 bd 8d d1 f5 3c
       0.088207714 -0.037946206 -0.06554774 0.030007148
0000f0 39 71 cb bc fc 62 0b 00 7f 2d e9 3c e1 4a 36 3d
       -0.024834262 1.0457e-39 0.028464077 0.044505004
000100 aa 95 f6 bc 1c 50 88 38 4f 26 bf 3c 81 12 ab bd
       -0.030100662 6.499907e-05 0.023333697 -0.08353139
000110 5d f8 3f 3c 9b 41 2f bc de 2b 59 bd d7 14 d9 3c
       0.011716929 -0.010696794 -0.05302035 0.026499195
000120 99 5d 94 3c d8 86 8f 3c 09 f7 e6 bc 26 a8 23 3c
       0.018111037 0.017520353 -0.028193967 0.00998882
000130 4c a9 d4 ba a7 57 21 bd 7e 17 33 3d 64 b4 9c 3c
       -0.0016224771 -0.039390232 0.043723576 0.019128986
000140 7c 96 6d 3b 0d 18 7d 01 48 d7 05 3c c8 ec 65 bd
       0.0036253026 4.6486017e-38 0.008169003 -0.056134015
000150 e5 5e 10 bc 6f 73 58 3d 52 e3 1b 3d a3 dc b3 3d
       -0.008811687 0.05284446 0.038058586 0.087823175
000160 a9 60 dc bc c8 5f 7c bb 90 e7 c6 bd 66 e4 2d 3d
       -0.02690156 -0.0038509239 -0.09712136 0.042454146
000170 01 47 e0 3d 92 96 7d bd 70 70 09 bd e4 74 5e bc
       0.10951043 -0.061911173 -0.033554494 -0.013577674
000180 b7 0f 02 3d 25 fa 53 bd 21 7e 12 81 4e 3f 73 3c
       0.031753268 -0.05175223 -2.6906458e-38 0.014846636
000190 a7 13 53 3c 50 4b 96 bc 2e a0 d7 3c 32 a8 30 3d
       0.012883103 -0.018346459 0.026321497 0.043129154
0001a0 9a f7 a5 3d 19 ec 3a 3d b9 3a 25 bd b9 25 58 b3
       0.08103867 0.045635317 -0.040339205 -5.0325728e-08
0001b0 87 9e 38 bb 73 f9 7a 3d b7 d2 e4 bc 66 a1 61 ba
       -0.0028170662 0.06127305 -0.027932508 -0.0008607119
0001c0 b4 3a cb 3d 72 34 2c 81 d4 88 2c 3c f7 1d 45 3d
       0.09923306 -3.1629038e-38 0.010530669 0.04812428
0001d0 14 81 22 bc e7 06 14 3a 3d 32 8d 37 21 80 49 32
       -0.00991847 0.00056467805 1.6831904e-05 1.1728873e-08
0001e0 d1 65 78 bd 6b eb 9c 3c 25 b4 4b 80 0a 58 59 3c
       -0.060643975 0.019155225 -6.952286e-39 0.013265619
0001f0 d8 25 66 3d 17 bf 9e 8f e8 2d 0a bd 5c 37 4f 3d
       0.056188434 -1.5653608e-29 -0.033735186 0.050589904
000200 9f 42 3c 3d 94 42 85 3c 27 6e a3 bd 4e 98 d7 3d
       0.045961972 0.016267098 -0.07979994 0.10527097
000210 f9 87 ec bb d4 4a 9c 3a 49 38 2f 80 f5 c0 11 00
       -0.0072183576 0.0011924156 -4.33646e-39 1.630423e-39
000220 78 62 a8 2e c2 e6 50 bc 19 c8 9f 3c 88 f5 1d bd
       7.657247e-11 -0.012750329 0.019504594 -0.038564235
000230 4e a9 92 3d 30 ff b7 bc 7d 94 c7 b0 97 68 53 0e
       0.071611986 -0.02246055 -1.4521359e-09 2.6058116e-30
000240 25 a6 02 bd e0 03 a4 bb a9 fa 16 bc b8 54 c9 3d
       -0.03189673 -0.0050053447 -0.0092150355 0.09830612
000250 11 29 87 3a 42 d2 4a bb ff af 09 bd a9 53 02 bd
       0.0010311921 -0.0030948077 -0.03361511 -0.031818066
000260 d3 e1 2c ba a2 7b ab bd f7 cf 0b 3d c8 ff 53 00
       -0.000659493 -0.083731905 0.034133878 7.714103e-39
000270 f7 e5 60 bc 2f 0f 13 bd 3b b9 0c 3c e4 6a 24 bc
       -0.013726703 -0.035903152 0.008589084 -0.01003525
000280 e5 f6 92 bc 77 73 ed 3c 65 37 78 01 af d8 d1 3b
       -0.017939994 0.028985722 4.559015e-38 0.0064040045
000290 85 5a 03 bb c9 6b 23 3d 48 e9 da bc 14 1b 56 3d
       -0.0020042968 0.039897714 -0.026722565 0.052271917
0002a0 84 be d5 3c 80 86 e7 bd f5 87 ba 3c 98 93 76 3b
       0.026091821 -0.11304951 0.022769907 0.0037624594
0002b0 d7 eb c9 bb 23 4f ac bb 9b 75 36 3d ac b5 b4 bd
       -0.0061621475 -0.0052584573 0.04454575 -0.08823714
0002c0 b7 8a 45 3d 96 4f a1 bd 41 df 27 80 1a 2b 57 bd
       0.048227992 -0.07876508 -3.661673e-39 -0.05253134
0002d0 45 7e ab bb 74 3b 0a 81 6d 06 d3 b8 ae 06 aa bc
       -0.0052335584 -2.5389252e-38 -0.00010062461 -0.020755138
0002e0 95 19 80 3d 82 d2 1d bd d5 4a 6b bd dc 69 92 3d
       0.062548794 -0.038530834 -0.057444412 0.07149097
0002f0 5e 61 df bd 44 1e 1a 00 8e 46 5b 3d 57 b5 56 3d
       -0.10907243 2.39858e-39 0.053534083 0.052419033
000300 d6 94 86 bd ae 88 74 34 75 d4 5f 3d c4 f7 02 bd
       -0.06571357 2.2773995e-07 0.054645974 -0.03197457
000310 11 1f 3c 3c 42 42 00 3d f4 5e 28 bc 11 1f b3 3c
       0.011482016 0.03131319 -0.010276545 0.0218654
000320 2d ff ee 3c 7d b3 76 3d 03 51 a4 bb e2 b6 ae 3c
       0.029174412 0.060229767 -0.00501454 0.02132744
000330 7d f4 cb bb 98 ee 55 bc 79 b3 db 3d 46 84 95 bd
       -0.0062242136 -0.013057373 0.10727591 -0.0730062
000340 e5 2d 20 bd 34 89 9c 81 4e 23 4e bd 18 d1 70 bd
       -0.03910627 -5.7502226e-38 -0.050326638 -0.058793157
000350 da 8c 05 bd ce 87 63 3d 58 51 3e 3d 5a 61 64 3c
       -0.03260503 0.055549435 0.046464294 0.013939226
000360 2b c0 35 3d 4c 25 36 3b b7 bc ac bd 96 d8 5e bb
       0.04437272 0.0027793227 -0.08434432 -0.0034003607
000370 ec eb b7 3d df 9c d8 bd 92 dd 03 bd c6 eb cf bd
       0.089805454 -0.10576796 -0.032193728 -0.10152392
000380 b6 87 ad bc b2 26 9f bd be 09 07 80 9d 39 76 bd
       -0.021182876 -0.077710524 -6.46343e-40 -0.060113538
000390 1a 3d 93 3b f4 29 17 3d 67 e5 39 3c e3 ee 87 ba
       0.004493368 0.036905244 0.011346198 -0.0010370876
0003a0 6c 1a 4d 3c f6 bf 71 3d 06 31 8f bd 54 77 34 b7
       0.0125185065 0.05902096 -0.06991772 -1.0756619e-05
0003b0 44 07 da bc 67 88 10 3d ed 69 83 3d b0 c5 4c bb
       -0.026614793 0.035286333 0.06416688 -0.003124576
0003c0 eb 11 37 3d 4e 1d 5d 81 6f af db ba 59 57 bd 3d
       0.044694822 -4.0612314e-38 -0.0016760657 0.09245176
0003d0 c2 05 1b 3c 56 41 55 39 d4 76 1f 32 1d 92 0f 2f
       0.009461822 0.00020337602 9.2820365e-09 1.3057684e-10
0003e0 c4 5c 82 bc f3 bf 2f 3c d3 57 f9 00 91 f2 d8 bc
       -0.015913375 0.010726917 2.2898544e-38 -0.026482852
0003f0 6e b1 60 3d 70 93 80 14 f1 57 e6 bc fd 79 91 3d
       0.05485671 1.2982851e-26 -0.028118106 0.071033455

decoder.2.bias f4 [600]
000000 5e c6 21 bd 76 40 b2 bc 7d c6 b8 3a 43 d0 e7 3c
       -0.03949582 -0.021759253 0.001409724 0.02829755
000010 1b 60 96 bc 2b 1d cf bb 75 4f 72 3c e8 64 2a 3d
       -0.018356374 -0.0063206158 0.014789452 0.041600138
000020 c2 a1 92 bb 3f 16 d4 3b b7 10 ec 3c 11 21 de bb
       -0.0044748494 0.0064723785 0.028816564 -0.006778844
000030 89 21 5f 3b 83 dd 00 3d 73 fe 2b 3d 74 03 45 bc
       0.0034047088 0.03146125 0.04199071 -0.012024749
000040 ef 87 f7 3d e2 fb 67 3d 22 89 32 3d b5 c5 99 3c
       0.12086474 0.0566367 0.04358781 0.018771032
000050 52 67 c2 3d c3 e8 8d 3d 21 8f 22 3d 62 b9 b3 3d
       0.09492363 0.069291614 0.03968728 0.08775593
000060 a5 2e af 3d 5f 43 b8 3d 11 b6 7f 3d 8b e1 b1 3d
       0.085538186 0.08997225 0.06242949 0.08685597
000070 57 fc 3b 3d c9 4e d1 3d 94 86 a3 3c 12 b4 51 3d
       0.045894947 0.10220105 0.019961633 0.05119712
000080 b4 07 1d 3d 34 98 70 3d 41 fb d0 3d f6 6f 0c 3c
       0.038337424 0.058738902 0.10204173 0.008571615
000090 6f 7f bc 3d 16 e8 8b 3d 28 b8 18 3d 71 69 51 3d
       0.092039935 0.06831376 0.037285 0.051125947
0000a0 4a 8a ed 3c 08 a2 77 3c de 07 39 3d 0b 34 14 bd
       0.028996605 0.015114315 0.04517352 -0.036182445
0000b0 6a 06 16 bc 20 c9 15 3d 18 a7 ec 3d 17 b4 b6 3d
       -0.009156803 0.03656876 0.11555308 0.08921068
0000c0 76 a2 42 3d 5e 34 78 3d d6 12 9d 3d 9f 84 55 3d
       0.047518216 0.060596816 0.07669608 0.05212843
0000d0 75 cc a5 3d 60 b0 83 bb 7d 34 56 3d a8 8e e5 3d
       0.08095638 -0.0040188283 0.05229615 0.1120885
0000e0 00 7b 9f 3d 6e 54 8b 3d f6 6f 90 3d d0 b4 bc 3d
       0.07787132 0.06803213 0.07052605 0.09214175
0000f0 b8 75 aa 3d cd 3e d1 3d b3 26 8c 3d 2e 62 51 3d
       0.08323234 0.102170564 0.06843319 0.051119022
000100 e8 5b 95 3d 1f 4d 04 3d 20 85 90 3d ba 2d ea 3d
       0.0729292 0.03230011 0.070566416 0.11434503
000110 5e fb 41 3d aa 34 c8 3d e6 e6 88 3c bb e0 a5 3d
       0.047358863 0.0977567 0.016711663 0.080995046
000120 6c 01 df 3c c7 ef 22 3d 6b 3c 6b 3d ca 86 a1 3c
       0.027222358 0.03977945 0.057430666 0.019717593
000130 3d 30 65 3d dc 8b ed 3c c5 34 10 bd 69 25 46 3d
       0.055954207 0.028997354 -0.035206575 0.04837552
000140 05 df 4f bc 99 80 23 bc d2 e8 ce bc 0f 36 07 bd
       -0.012687449 -0.009979391 -0.025257502 -0.03301054
000150 80 f9 c7 bc f4 47 69 bc e7 c5 91 bc 20 f3 07 bd
       -0.024410963 -0.014238346 -0.017794563 -0.033190846
000160 4e 7d 0e bd 1b bb 11 bd b1 e0 4d 3a c2 96 26 3c
       -0.03478747 -0.03557883 0.0007853611 0.010167779
000170 b1 b7 29 3d 5d ea 36 3d 66 7c 3f bb 42 2d f6 3c
       0.041434947 0.0446571 -0.0029218434 0.030050877
000180 09 9a 2f 3c 63 37 60 3c 08 61 49 3d f8 c4 1b 3d
       0.010717877 0.01368508 0.0491648 0.03802964
000190 49 2f 19 3c 12 91 54 3d e1 d5 dc 3a 15 69 90 bb
       0.009349653 0.051896162 0.0016848409 -0.004407058
0001a0 c1 b4 44 3d 42 1c ab 3d 65 4b d8 3c 09 7e b8 3c
       0.048023943 0.08354999 0.026403138 0.022521036
0001b0 8f 0a 9e 3d fb 4e 9e bb d5 2d 6d 3d 4d 1d 7c 3c
       0.07716858 -0.0048311925 0.057905037 0.015387845
0001c0 30 9f a7 bc a9 61 af 3b 3b ad 9f 3b d5 c8 8f bc
       -0.020461649 0.005352218 0.0048729456 -0.017551819
0001d0 f2 5a 24 3d a5 e3 e9 3c 70 43 56 bc 30 d7 82 3a
       0.040125795 0.028550932 -0.013077602 0.0009982344
0001e0 9f 31 56 3b e4 e2 0a bd c1 98 75 3c d1 69 ca 3c
       0.0032683385 -0.033907786 0.014990033 0.02470866
0001f0 2e 45 f6 bc 4c 56 0a bd 8b 8d d0 3c 31 37 8a bb
       -0.030062284 -0.033773705 0.025458118 -0.004218005
000200 62 99 dd bb b9 27 3f 3b 18 4c a1 bb b8 05 2d bd
       -0.0067626694 0.0029167964 -0.004922401 -0.042241782
000210 ae 8a 43 bc 06 7b ca bc 93 21 20 bd 28 d1 c3 bc
       -0.011934919 -0.024716865 -0.03909452 -0.023903444
000220 44 33 e3 bc 44 1e b7 3b 84 59 d7 bb 63 22 b2 3c
       -0.027734406 0.0055883247 -0.0065719504 0.021744912
000230 cf b9 7d 3d f5 52 bc bc 01 93 13 3d 9e c6 e0 3a
       0.06194478 -0.022988776 0.036028866 0.0017149036
000240 ef 48 6c 3d 2e b2 4c 3d e2 c1 54 3c bd 4a f8 bc
       0.057686742 0.049974613 0.012985678 -0.030309075
000250 e2 33 79 3c 6e ca c0 bc 53 90 64 3b 43 d8 9d 3c
       0.015210124 -0.023534026 0.0034876063 0.01926816
000260 64 cd 81 3c 34 58 4f bd c7 3b 86 3b e0 c1 bf 3c
       0.015845008 -0.050621226 0.0040964815 0.023407876
000270 fc e6 f2 bc d8 99 77 bc 00 a7 78 bd ce 0f 2c bc
       -0.029651158 -0.015112363 -0.06070614 -0.010501815
000280 09 a0 39 bc 21 71 9d bb cf 0e 10 3d a6 38 89 3d
       -0.011329659 -0.004804746 0.035170373 0.06700258
000290 b8 3f 8e 3d 9c e1 45 3c 9b 26 ea 3d 5a 64 b4 3d
       0.06945747 0.012077715 0.11433145 0.08808203
0002a0 26 f0 51 3d fe 3d ca 3d bb fc b1 3d b5 d8 86 3d
       0.051254414 0.09875105 0.08690783 0.06584302
0002b0 6c 9e 7a 3d 05 9b 89 3d 4c eb 2c bc 64 cb 4f 3d
       0.06118624 0.06719021 -0.010554146 0.050731078
0002c0 1d 99 b9 3c 45 49 4c bd 8d e2 f9 bc d9 c8 e0 3c
       0.022656018 -0.049874563 -0.030503536 0.027439522
0002d0 ac a0 c6 bd 1e 23 5c bd 4f f5 3b bd 84 f6 7d bd
       -0.096986145 -0.053744428 -0.04588824 -0.062002674
0002e0 88 7d ac bc fd c2 02 3d 7d ae 4a bd f2 21 04 bd
       -0.021055952 0.031924237 -0.04948281 -0.032258935
0002f0 0f 6c e0 3c 20 ed a1 ba e7 24 3b 3d 91 dc 9e 3d
       0.027395276 -0.0012353994 0.04568949 0.077569135
000300 7c 51 67 3d ca ef 05 3d 5d db 50 3d 02 35 88 3d
       0.056474194 0.032699384 0.05099045 0.066507354
000310 67 9f 9e 3d 43 cb 98 3d 35 d4 40 3d 0e 40 f8 3c
       0.07745247 0.07460644 0.047077376 0.030303981
000320 52 ca 8b 3d 5b 16 d2 ba 9d 8a 06 bc e3 c9 15 bd
       0.06825699 -0.0016028391 -0.008211759 -0.036569487
000330 0b b0 94 bd 59 7f 26 bd 89 30 af 3b 1f 5f bc bc
       -0.0726014 -0.040648792 0.005346362 -0.022994576
000340 fd 02 86 bd cb 1e 2b bd 5a cf 41 bd ba a7 1f 3d
       -0.06543539 -0.041777413 -0.047316886 0.038978316
000350 58 79 c3 3c 31 89 43 3d cd ef 81 bd 23 de dc 3c
       0.023861572 0.047738258 -0.063445665 0.026961392
000360 fd 53 0c 3c 91 8f 98 3d 75 c2 bc 3d db 13 05 3d
       0.008564946 0.07449258 0.09216777 0.03248964
000370 d6 e7 39 3d 0d 61 8d 3d 72 8f 8c 3d 72 fa a0 3d
       0.04538711 0.069032766 0.068632975 0.07860269
000380 39 82 ec 3a b8 64 e5 3d 95 e4 d6 3d bd 62 3f 3d
       0.001804418 0.11200851 0.10492817 0.046725024
000390 92 da 74 3d b3 5d 6c 3d 2d ff f0 3d d6 ca 83 3c
       0.059778757 0.057706546 0.11767421 0.01608793
0003a0 a0 38 d5 3c 0f c8 48 3d bc 6c 6d 3d b0 f6 3f bc
       0.026027977 0.049018916 0.057965025 -0.01171653
0003b0 96 02 a4 bc 9a 2c 93 bc 4e 4a 30 bd a5 1d 9f bd
       -0.020020764 -0.017965604 -0.043039612 -0.07769326
0003c0 bc 8f 8b bd 06 10 cb bc 08 76 d8 bd 41 7a 87 bd
       -0.068145245 -0.024787914 -0.10569388 -0.06615115
0003d0 a5 0c 61 bd c8 46 7d bd 1d 30 54 bd e0 fb 86 bb
       -0.0549437 -0.06183508 -0.051803697 -0.0041193813
0003e0 f4 65 12 3d ca 7c 08 bb d1 ca d8 3c 27 6a 86 3d
       0.03574176 -0.0020826333 0.026463898 0.06563216
0003f0 f5 8c 80 3d 81 59 4a 3d a6 7b 8b 3d fa 21 83 3d
       0.062768854 0.049401764 0.068106934 0.06402965
